weights.pth (torch_old, 317565 bytes, 6 tensors)

conv1.weight f4 [128, 3, 3, 3]
00000000: c204 06be d2cb 3cbd 91fa 443e fad6 253d
00000010: 9d8c c13d df19 13bd 1db0 8f3d fa5e b6bd
00000020: ac04 513d 962e 84bd 65ea 30be 5b6c acbc
00000030: 307e 103e 61e0 1dbe 0306 04bd 95bc 273d
00000040: 0a00 fa3d 40a3 133e e7b5 02be 6dbf 27be
00000050: 9ef1 5b3d f848 323c bd6b f0bd 4756 f93d
00000060: 265e 163e 603f 733d 9ecc 0b3e 7917 33be
00000070: b693 823d 0ec7 223e 85fe a1bd 7e95 06be
00000080: a26b ea3d 3314 23bd 4637 253e 7e3f bd3d
00000090: 71c3 233e f4c1 863d 352c dbbd a04a ae3d
000000a0: f812 723d 0643 a9bd 30e0 f93d 0dc9 aebd
000000b0: 00f1 f1bd 37d9 8ebd 0cfa 423e 3169 07be
000000c0: 4d0e 36be f113 a93d 07d8 a53c 735b a23d
000000d0: e7b6 b93d c29d 91bd 36f4 ae3d bf8b 1b3e
000000e0: b84d 2cbe a80f 653d fb27 96bd d071 72bc
000000f0: 633b 12be 381b 47bd 155e 1f3e 6d10 fbbd
00000100: 00d0 973b 8630 813d ebb9 0f3e e9a6 11be
00000110: 1bd4 063e 48bb 09be 2032 c9bc b5e8 c6bd
00000120: 34b2 7e3d 5349 07be 20e2 9c3c 9ba7 2fbe
00000130: 8035 863c 00dd 89bc e448 d8bd 80b9 963b
00000140: 20f5 d33c 8a50 293e abf8 8e3d c295 e23a
00000150: 0f09 1cbe 61ff 80bd eba9 7a3d 9c44 2cbd
00000160: db4d e63d c22b 6dbb b1f3 28be 08e6 42be
00000170: 0cbc 38be 2729 3b3e dc4e 85bd ae67 0e3d
00000180: cea8 063e 4e65 e1bd 2989 86bd 0d0d 423e
00000190: faf9 b3bd 8e46 073e ff0a 15bc 186f fc3d
000001a0: 1a2a 803c 5ddc 3c3e 00b4 e53c e693 293d
000001b0: 6824 bcbb 28d6 8a3c 1577 123e d6d1 3ebe
000001c0: 0e96 22be b47b 2ebe b7ce 9c3d 7b72 0d3c
000001d0: 4ab7 543d c254 5bbd b07b a63d 9301 2e3e
000001e0: 776c b9bd 3a18 9f3d 758d 863d 2890 c83c
000001f0: 7281 da3d 18ed 2dbe e212 28be bfa6 ed3c
00000200: 4c1c 343e 7537 a63d 2a25 31bd 413f 05be
00000210: 4b9d 1dbe 5a54 493c 9a58 ce3d 9297 b23d
00000220: 62b8 c5bd e66f ca3d 088a 333d 1858 bc3c
00000230: 2cb3 11be 9547 13be 1462 03be 0be2 eabd
00000240: 63ad 2abe 2f3e 153e a076 44bd 8011 833b
00000250: 1720 0cbe 8324 26be 0a6e 87bd 7001 0ebe
00000260: 213d 38be 2813 02bd 0215 05be ef8d d1bd
00000270: a44d 15be a62b 9b3d b71b 373e dfd1 433e
00000280: db0e 16be da44 b43d 6391 a6bd 9144 a3bd
00000290: 14c8 e7bd 297f 243e d5b9 bcbd 9c12 25be
000002a0: 34da 93bd 4b34 383e 7b4d 07be c6f6 1a3a
000002b0: 5baf 1f3d b736 2a3e c2c7 673c b7bd 303e
000002c0: fa91 053e 17e8 103d f0c2 dabd 441c 27be
000002d0: b81f 20bd 829d e23d dda5 d2bd 983f 903c
000002e0: 0d1d 98bd 7561 99bd e4a1 fa3d 9330 2bbe
000002f0: 5a5f db3c 2a62 2bbe 93fd 8abd 6e71 53bd
00000300: 6e93 02be bf49 20bc 88e6 d8bd 7b6c 273e
00000310: 9d39 643d 2b3c 11be 788c c2bd aa56 eb3d
00000320: 2f28 f3bd 707a 8a3d 6493 883c 9722 883c
00000330: 1837 fc3d b99f 5dbd 1b64 283e 878d b53d
00000340: 4123 113d 48d7 6dbc 8ecc 13be 36e7 1a3d
00000350: 7fa6 acbd 3ac2 843a 9b3d 2b3e e107 9e3b
00000360: 0c85 3a3e 606d 48bd 5fb7 07bb 9883 173e
00000370: a212 39be 75d3 283c 3b8d 9fbd f926 b0bd
00000380: 34fb 05be e1dc 973d 3418 e33d 13f5 15be
00000390: 22b5 3bbe 3b30 803d ce01 6c3d 3ddb 8f3d
000003a0: cdc8 bcbd c604 97bc 871b 643c 70a1 ac3d
000003b0: 69ed 583b da8e b5bb bbc9 fe3d bb1f c53c
000003c0: b91c 6dbd ef0b 11be 4897 38be e5ad b3bc
000003d0: a9dc 2bbe 6423 7a3d 7fab d9bd 371b d43c
000003e0: 8157 8d3d 5cb4 7e3d 05eb 00bd 78c9 2b3e
000003f0: 036e dabd 7949 29be 737a 263e adb3 55bd
-0.13087752 -0.046092816 0.19236208 0.04048822 0.09450648 -0.035913344 0.07016013 -0.08904834
0.051029846 -0.06454198 -0.17276914 -0.021047762 0.14110637 -0.15417625 -0.032232296 0.04095133
0.12207039 0.14417744 -0.12764703 -0.16381617 0.05369722 0.010881655 -0.117392994 0.12174659
0.14684352 0.05938661 0.13652274 -0.17489423 0.0637583 0.15896246 -0.07909874 -0.13142964
0.114463106 -0.039814185 0.16134366 0.09240626 0.15992524 0.065799624 -0.10701791 0.08510327
0.05910012 -0.08264737 0.122009635 -0.08534441 -0.11813545 -0.06975024 0.19040698 -0.13223721
-0.17778893 0.08255757 0.020244611 0.07927599 0.09068089 -0.07110168 0.08542673 0.15190028
-0.16826522 0.055923134 -0.073318444 -0.014797643 -0.14280467 -0.048609942 0.15563233 -0.12258992
0.00463295 0.06308083 0.14035766 -0.14223827 0.1316685 -0.13450348 -0.024560034 -0.09712354
0.062181666 -0.13211565 0.019150794 -0.1715378 0.016382933 -0.016829014 -0.10560778 0.00459975
0.02587372 0.1653463 0.069810234 0.0017287063 -0.1523783 -0.0629871 0.061197203 -0.04205762
0.112453185 -0.0036189412 -0.16499211 -0.19033062 -0.18040484 0.18277417 -0.06509182 0.034766845
0.13150331 -0.110056505 -0.0656913 0.18950291 -0.087879136 0.13210508 -0.00909686 0.12325877
0.015645076 0.18443437 0.028039932 0.041400813 -0.0057416447 0.01694782 0.14303239 -0.18634734
-0.15877554 -0.17039376 0.07656615 0.008633251 0.05193261 -0.05354763 0.0812906 0.16992788
-0.09053891 0.07768293 0.065699495 0.024482802 0.10669221 -0.16984975 -0.16413453 0.029010175
0.1758892 0.08116046 -0.043248333 -0.1301241 -0.15392034 0.012288177 0.10075493 0.08720316
-0.09654309 0.09884624 0.04383281 0.022991225 -0.14228505 -0.14382775 -0.12830383 -0.114688955
-0.16667704 0.14574502 -0.047964692 0.003999889 -0.13684116 -0.16224866 -0.06612785 -0.13867736
-0.17992069 -0.03175655 -0.12996295 -0.1023215 -0.14580399 0.07576685 0.17881666 0.19123028
-0.14654104 0.08802195 -0.08133199 -0.079720624 -0.11317459 0.16064133 -0.09215132 -0.1612038
-0.07219353 0.17988698 -0.1321315 0.0005911406 0.03898559 0.16622435 0.014146747 0.1725987
0.13043967 0.035377588 -0.106817126 -0.16319376 -0.03909275 0.110651985 -0.10285542 0.017608449
-0.07427416 -0.074892916 0.122379094 -0.16717748 0.026778866 -0.16736665 -0.06786647 -0.051621847
-0.12751552 -0.009783207 -0.10590845 0.16349976 0.055719007 -0.14183109 -0.094994485 0.11491139
-0.11872899 0.06761634 0.016671844 0.016618056 0.12315196 -0.0541074 0.16444437 0.08864885
0.03543401 -0.014516659 -0.144335 0.037818156 -0.08430194 0.0010128685 0.1672272 0.0048227166
0.18214816 -0.048932433 -0.0020708663 0.14796293 -0.18073514 0.010304322 -0.077906094 -0.086011834
-0.13084108 0.07415176 0.11088601 -0.1464427 -0.18330815 0.06259199 0.05761891 0.07024238
-0.09217987 -0.018434893 0.013922579 0.08429229 0.0033100492 -0.005540711 0.12440821 0.024062982
-0.05788872 -0.14164709 -0.18026459 -0.021933505 -0.16783394 0.061068907 -0.106284134 0.025891883
0.06901456 0.062183723 -0.031474132 0.16776073 -0.10665514 -0.16531934 0.16257648 -0.052173305

conv1.bias f4 [128]
00000000: ae93 3bbe e737 07be 1127 96bd b748 dfbc
00000010: ace0 d73d d01d 85bd 4599 193e 905f 9dbd
00000020: 196a 403e ef6e 43be e244 e3bd 7926 e5bd
00000030: b854 693d f695 c0bd 54ef 00be 654b d0bd
00000040: de6a 003e 085a 3a3e 52dd 1fbe bfee 0ebc
00000050: f7a8 223e fcb4 6d3d f372 3dbe 1fa3 333e
00000060: 71e5 083e e6a7 37be 118a 26be d069 ecbc
00000070: 5b0f abbd 3246 4d3d b0dd 00be 8a63 cabd
00000080: 9ccc 49bd 8026 28bd e529 193d d0ea aabc
00000090: 13c0 373e 6f9e 163d 90bf 303e 429d 5bbd
000000a0: 10df 5e3d c535 01be dfd9 f4bd 1b5e 35be
000000b0: 4c89 32be 3237 7b3c a369 51bb bc23 913d
000000c0: 38ce 19be 48e3 3c3e 9c46 aebd 5a09 61bc
000000d0: 42cb 1ebe 21e9 01be 1c97 e8bd d3c3 45bd
000000e0: 8607 33be 576c a03d 813e 2c3e 5063 1a3e
000000f0: a602 a93b a387 02be 6c24 fb3d 4685 3fbd
00000100: 1cb5 e3bd 01c9 a4bd b0b0 18be 63d1 5d3d
00000110: 9a0d 4b3d 30f0 7fbc 989f 413e 8bd1 88bd
00000120: b1c0 1e3d 688a 12be 6775 003d d0c7 a4bd
00000130: f85b bcbc f7fd 7d3c 66e3 cabd 8323 bc3d
00000140: c4c6 e1bd 8d0c dcbb a7bf 053e 05fb fbbd
00000150: 1b77 0a3e 3d8e a8bb bbf6 723d cfcf 17bd
00000160: 4db9 fd3d e19d 13be 9889 003d 9a58 6dbd
00000170: 2978 043e c944 c9bd cdd1 313e 2fc5 32be
00000180: fabe 703d 2c3b 203e 0bea 06be 6468 203d
00000190: 6547 6f3d 364e 4cbd 4485 9ebd f2d0 323e
000001a0: 6b95 843d 75e0 1abe 395e 2fbc b0d6 b6bc
000001b0: 1764 b83d a60d 033e 5c33 49bd cbb8 2c3d
000001c0: fe28 b23d 06c2 08be 080e 30be 7b6c 3d3e
000001d0: ccdb b2bd 7577 8b3d c9a0 1cbd 70a7 6ebd
000001e0: 90ee 35be f026 313e f894 12bc 9825 87bd
000001f0: 8e4d d43d 2677 d4bd e3e5 ffbd 7c57 d5bd
-0.18318054 -0.13204919 -0.0733167 -0.027256353 0.105409 -0.06499827 0.14999874 -0.07684243
0.18790473 -0.19085287 -0.11097123 -0.11188979 0.05696556 -0.09403603 -0.12591296 -0.1017063
0.12540767 0.18198407 -0.15611771 -0.008723914 0.15884767 0.05803393 -0.18500881 0.17542695
0.13368775 -0.17935142 -0.16263606 -0.02885905 -0.08352538 0.05011577 -0.12584567 -0.09882267
-0.049267396 -0.04105234 0.03739347 -0.02086392 0.17944364 0.036772188 0.17260575 -0.05361677
0.054411948 -0.12618168 -0.11955618 -0.1771168 -0.17435187 0.015332984 -0.0031953834 0.07086894
-0.15020072 0.18446076 -0.085095614 -0.01373514 -0.15507224 -0.12686588 -0.11356947 -0.048282456
-0.17483339 0.07833164 0.16820718 0.15076947 0.0051577864 -0.12747054 0.12262806 -0.04675796
-0.11118528 -0.08046151 -0.14911151 0.054154765 0.04957352 -0.01562123 0.18908536 -0.06680592
0.038757984 -0.1431061 0.031361964 -0.08045924 -0.022993073 0.0155024445 -0.09906654 0.09186461
-0.1102424 -0.0067153634 0.13061391 -0.123037376 0.13521998 -0.0051439092 0.05931733 -0.037063416
0.12388859 -0.14415695 0.03138122 -0.057945825 0.12936462 -0.09827573 0.17365189 -0.17458032
0.05877588 0.15647572 -0.13175218 0.039162055 0.058417697 -0.049879275 -0.07740262 0.17462519
0.06473812 -0.15124686 -0.010703617 -0.022319168 0.090034656 0.12798175 -0.049121246 0.04216842
0.08699225 -0.13355264 -0.17192852 0.18498413 -0.08733329 0.06809894 -0.038239274 -0.05826515
-0.17766786 0.1730001 -0.00894665 -0.06598967 0.10366355 -0.10374288 -0.12495019 -0.10417077

conv2.weight f4 [64, 128, 3, 3]
00000000: 1c30 873c 8f39 ccbc 9716 d73b 8fd4 743c
00000010: f572 b2bc 74a4 a33a 1fea b63c 3be1 5fbc
00000020: f23c 4b3c e9d8 46bc 31c4 18bb 645a 69bc
00000030: e8ab bcbb 35bf 89bb f5b5 d1bc e9df 81bc
00000040: 096d bfba 155d 9a3c afed b03c b409 08bc
00000050: a0e0 71bb 7cf8 963b 40e4 21ba d9f6 ee3c
00000060: 783c 0b3b cc7f 913b e9ed 7abc 71f7 5bbc
00000070: fcb7 b9bb 328d fd3b 3d42 f43c bd7d c53c
00000080: c21b eabc 6c82 e13c a3d0 673c 2989 db3c
00000090: 06cb e23b ca1e 00bc 9ec4 483c 988b eaba
000000a0: a7a5 7dbc fc7a c63c d65c 403c 5f42 2f3c
000000b0: 9d0c 983b d329 973c 2c61 863b e291 453c
000000c0: ffae be3c 8fa6 d0bc 2516 17b9 3143 8cbc
000000d0: faa0 95bc e84c 203b 668f 323b dff6 663b
000000e0: dab9 253a 041b c0bc a803 f0bc b4fe 143b
000000f0: 3264 be3c d7e7 e9bc e17e c53b ff82 9f3c
00000100: e97b 98bc 5500 b7bc 54a5 9e3c 322a df3c
00000110: dce0 d93b d2a5 ae3c f015 1d3c 7130 753c
00000120: 86c2 073b 7371 9c3c 3f28 8b3b 3641 e9bc
00000130: a6e4 a93c 3101 56bb edce 0ebc 653b a23c
00000140: 1e2f 8d3c 8fc5 1dbc c478 df3c 5371 97bc
00000150: df63 8dbc df78 703c 6554 873c 6729 67bc
00000160: d5c3 2e3c dabe a13a b627 9bbc c447 29bc
00000170: 5f3c da3c 0915 943a e127 4a3c 8411 f43c
00000180: 0fc8 d2bb 5a4e 8dbc a4c2 95bc 85f3 473c
00000190: 4ee8 5d3c 6bf9 e6bc 7ee4 55bc b38b 953b
000001a0: 34ce ec3c 1474 d43a d849 f23b 43ec d33c
000001b0: f64e b33c dfa6 a0ba 3b48 c839 b55f a93c
000001c0: 0a21 d9bc bec1 813b f872 92bc 13aa 913b
000001d0: 1ba6 01b8 6beb 3abc 8800 9dbc 14d6 1abc
000001e0: 4597 b13c 1019 87bc d0f8 88ba c6e9 bcbc
000001f0: 1df5 a63c 00a0 81bc 4dd8 9a3c a8cf efbb
00000200: c8a9 37bc 7402 cfb9 5c04 c0bb 137f a13c
00000210: 622c 0d3c b48f a0bb 0c22 52bc c2c7 c7bb
00000220: 6e69 8fbc ca94 fe3a 0649 bcbc d5c3 c33c
00000230: 5025 4bbc 1f4f 2e3b a2f7 e5bc 64d4 383c
00000240: eb86 98bc fd42 8c3c 236c febb 93cf 06bc
00000250: 402a b9bb 30f5 c53c 23cf 4b3c d72f af3c
00000260: 37f0 e13c e828 923c a7c0 b6bc 83a1 5db9
00000270: 2c34 f03b afed 3cbc 7278 a03c 082e 7ebc
00000280: 6691 353c 9c18 b13c 7425 8bb8 5b4e 353c
00000290: 62f2 8dbc d081 953b 8f5a b83b 867c 1b3b
000002a0: dd87 a03c 7879 f0bb 56cc 2e3c 30e4 b03b
000002b0: c018 1e3c d13d 39bc 975a ae3c bea7 dfbc
000002c0: 7a33 c0bc f1fd ff3b abf8 eabc 2cf1 9f3c
000002d0: 7fc2 cc3c 58b0 60bc 4634 bebc 1853 c13b
000002e0: 9b04 3fbc 4e37 7cbc 4cdf b03c 06e1 e83c
000002f0: 00e7 c33a 5d1d 0a3c dd2c 36bc d086 7a3c
00000300: d495 49bb 97a4 913c 1ce0 fd3a 0be2 2f3c
00000310: f435 57bc 7b04 29bc e095 af3b 1880 c73c
00000320: 9098 473c 56f1 bdbc 9f0e 353c ff18 c6bc
00000330: b407 ec39 ac07 bc3c b2fd 093b 7af9 b5bc
00000340: a105 b53c 1082 83bc 63cb 05bc 522e 9b3b
00000350: c798 723c 1e24 e1bc b46e 87bc 595b ba3c
00000360: ceaa 3abc ebda 21bc 25f3 943c 3ec0 89bc
00000370: 1177 633a a490 b73c 33ee de3c 5c84 073c
00000380: 0266 fe3b ad5c 85bc 65a5 b43c 5fdc b23c
00000390: 543e d53c 907e bc3c f71c 56bc 35a6 9abc
000003a0: 3290 f639 408f a4bc 574f be3c 6b32 10bc
000003b0: 2122 0b3b 6074 d83b 3d9f 03bb b304 013c
000003c0: dd64 c9bc 6ae3 9bb9 3f13 1a3b b114 8cbc
000003d0: b84e 6a3c 1bee 7d3c 692f 00bc 812d 74bc
000003e0: 8293 cb3b bf02 8fbc ee8d ecba 8c3f 95bc
000003f0: 9c77 013c 7b43 9dbc 51b0 c5bc df1c a9bc
0.016502433 -0.02492979 0.006563972 0.014943256 -0.021783331 0.0012484924 0.022328435 -0.013664539
0.012404667 -0.012136676 -0.0023310299 -0.014242742 -0.0057577975 -0.004203702 -0.02559946 -0.015853839
-0.0014604639 0.018843213 0.021597711 -0.008303095 -0.0036907569 0.0046072584 -0.00061756745 0.02917044
0.002124576 0.0044402834 -0.015315511 -0.013425694 -0.0056676846 0.007737779 0.029816741 0.024107808
-0.02857769 0.02752801 0.014148864 0.026798801 0.006921175 -0.007819841 0.012253908 -0.0017894385
-0.015481389 0.024228565 0.011740884 0.010696976 0.0046401755 0.01845256 0.0041009393 0.012058707
0.023276804 -0.025470046 -0.00014408732 -0.017121883 -0.018265236 0.0024459902 0.0027246117 0.0035242361
0.00063219445 -0.023450382 -0.029298618 0.0022734823 0.023241136 -0.028552933 0.006027088 0.019471643
-0.018613772 -0.022339026 0.019365944 0.0272418 0.00664912 0.021319304 0.00958775 0.014965163
0.002071531 0.019097066 0.004246741 -0.028473478 0.02073891 -0.0032654519 -0.008716327 0.019803712
0.017234381 -0.009629621 0.027279265 -0.018486654 -0.017259536 0.014677255 0.016519735 -0.014108992
0.010666807 0.0012340203 -0.018939834 -0.010332052 0.026640115 0.0011297773 0.012338609 0.029793508
-0.0064325402 -0.017249275 -0.018281288 0.012204056 0.013544155 -0.028195104 -0.013054965 0.0045637726
0.028906919 0.001620891 0.007394057 0.025869494 0.021888237 -0.0012256763 0.0003820079 0.02067552
-0.026505012 0.0039598634 -0.017877087 0.0044453233 -3.0910694e-05 -0.011408667 -0.019165292 -0.009450454
0.021678576 -0.016491443 -0.0010450128 -0.02306069 0.020380551 -0.015823364 0.018901968 -0.0073184557
-0.011209913 -0.00039483944 -0.0058598947 0.019713914 0.008616539 -0.0048999432 -0.0128255 -0.006096811
-0.017506327 0.0019423005 -0.022984039 0.02389709 -0.012399033 0.0026597453 -0.028072182 0.011281107
-0.018619021 0.017121786 -0.0077643557 -0.0082282005 -0.0056507885 0.024164766 0.012439522 0.021385117
0.027580364 0.017841771 -0.02230866 -0.0002113637 0.007330438 -0.011531278 0.019588683 -0.015513904
0.011082029 0.02161818 -6.635013e-05 0.011066045 -0.017327491 0.004562594 0.00562603 0.0023725345
0.019596035 -0.007338699 0.010668835 0.005398296 0.009649456 -0.011306242 0.021283431 -0.027301665
-0.023462046 0.0078122546 -0.028683027 0.01952418 0.024995087 -0.013713919 -0.023218285 0.005899798
-0.011658813 -0.015394045 0.021590851 0.028427612 0.0014946163 0.008429852 -0.011119095 0.015290931
-0.003075947 0.017778678 0.0019369158 0.010735045 -0.013135422 -0.01031601 0.0053584427 0.024353072
0.01218237 -0.023186367 0.011050849 -0.024181841 0.00045019167 0.022952877 0.0021055755 -0.022213686
0.02209741 -0.01605323 -0.008166167 0.0047357464 0.014806933 -0.027483042 -0.01653228 0.022748636
-0.011393262 -0.009878854 0.018182347 -0.016815301 0.0008677105 0.022407837 0.027213192 0.008271303
0.007763625 -0.016279543 0.022051523 0.021833597 0.026030697 0.023009568 -0.013068429 -0.018878082
0.0004702821 -0.020087838 0.023231192 -0.008801083 0.002123006 0.00660567 -0.0020083927 0.007874656
-0.024584228 -0.0002973334 0.0023510007 -0.01709971 0.014300995 0.015498663 -0.007823803 -0.014903427
0.0062126527 -0.017457364 -0.001804767 -0.018218778 0.007902052 -0.019197216 -0.024131926 -0.02064365

conv2.bias f4 [64]
00000000: 4e33 913b 7099 713c 6562 22ba 7368 843c
00000010: 2dca c23c 6537 cf3c 58eb d9ba a935 573c
00000020: 61d1 a73b 65b0 b43c ba15 233c dd1b 6fb6
00000030: 9d80 c2bc 03fb 26bc a63a 8f3c 1a28 1b3c
00000040: baeb bdbc 7c0d cabc dae7 59bc 080d bbbc
00000050: 313c a13c 1cdd 2d3c a2ca 0d3c c8b4 5c3b
00000060: 24bc d7bc 174d bcbb bbbc 5b3c 938d 033a
00000070: 0231 003c 75e1 4c3a 1e8b 84bc d90a f3bb
00000080: c716 11bc ee5a f23b 945b cc3c 13de d0bc
00000090: 04a6 d03c f516 2d3b a5ff 84bc 7024 423c
000000a0: 4163 83bc 14d7 8a3c b840 22bc b955 103c
000000b0: bd3d 0c3c 0a42 5d3b 0284 8f3c 7ccf 8bbc
000000c0: e1ef 82bb 22a1 a93b e794 90bc 5a0e fbbb
000000d0: 69d4 323b d52c 34bc fdac 8a3b 95ac 9c3b
000000e0: 03b7 9c3c fb7c 603c d644 c5bc b60c 913c
000000f0: ff53 a13c f87d bf3a cfa3 3f3b 33d3 c1bb
0.004431165 0.014746055 -0.00061944715 0.016163087 0.023778046 0.025294969 -0.0016625924 0.013135352
0.0051213955 0.022056768 0.0099539105 -3.5629994e-06 -0.023742968 -0.010191682 0.01748402 0.00947001
-0.023183692 -0.024664633 -0.013299907 -0.022833362 0.019682022 0.010611799 0.008654268 0.003367709
-0.02633483 -0.0057464945 0.013411696 0.00050183496 0.007824184 0.0007815578 -0.016179617 -0.0074170646
-0.008855528 0.0073960936 0.024946012 -0.025496518 0.025469787 0.0026411389 -0.016235182 0.011849508
-0.016038539 0.01694826 -0.009903125 0.0088095 0.008559641 0.0033761286 0.017519 -0.01706671
-0.003995881 0.005176679 -0.017649127 -0.007661623 0.002728725 -0.010997017 0.0042320476 0.0047813156
0.019130236 0.013701673 -0.024080675 0.017706256 0.019693373 0.0014609685 0.0029241925 -0.0059150695

conv3.weight f4 [3, 64, 3, 3]
00000000: 133d dfba 0cec 67bc 4101 6fbc 20dc a13c
00000010: e6f3 0cbd f644 a9bc e26c 483c c71e f83b
00000020: e391 093d ea57 c93c 65af 213d 6fa0 21bd
00000030: d22f 083d 00da efbb 71e5 10bd d1db 6bba
00000040: d583 71ba b873 83bc 809e fcbb d0e4 52bc
00000050: 904b 17bc df8d 1dbd f059 b138 bacd 6ebb
00000060: 04d0 c9bc 2478 623c 0a98 663c fff9 b33b
00000070: 6b76 413d 1822 a1bc 5a34 4dbc 9d1a 25bb
00000080: e35c 9a3b 076e 09bd c10d 093d fcb9 1a3d
00000090: 8a2c 14bc ecee 423c 13ee 043d c627 8a3c
000000a0: c805 b6bc c4b4 eb3c 0a98 1b3d 2182 243d
000000b0: 09a0 e43c 1926 e73b 179d fd3c 2d31 2a3d
000000c0: b9c3 093c c912 3abc b8f6 b73c bec7 9dbc
000000d0: db91 283d 5c1d 8d3c ab41 e8ba bbdf abbc
000000e0: 41dd 30bd 6b37 81bc 17a6 bcbc 5af4 67bc
000000f0: 6289 593c 66f3 823b e883 13bd bae3 d6bc
00000100: 467e cd3c 30f6 b0bc f712 153d 625d 003d
00000110: 23f0 6c3b e638 aabc 3797 aa3c 5abf 723c
00000120: 3e38 273d 3038 013d 460e 04bd e9c7 93bc
00000130: 3724 173c cf8a f5bc 8bd3 0ebc 6b27 16bd
00000140: 0e4a 163d 5699 36bc f460 0bbd d084 4ebb
00000150: 78f4 e2bb bace 8b3b 1109 ebbc 70c5 1ebd
00000160: c998 803c 685b 193d ef02 073d 995b d73b
00000170: 37e4 15bd 4066 623c 1ea8 2bbd 7ad3 0f3d
00000180: a669 733c af47 1e3d 516c e1bc e180 fe3b
00000190: 47cc 073c a237 d63c 4075 9c3c 62fe 80bc
000001a0: b7b7 b7bc 10c3 a73a 4f62 173d 375b a0bc
000001b0: b2d4 dfbc 426b 003d 0cac fb3c 3a0f 8abc
000001c0: 328a e1bc 8291 fbbc 81b6 8f3c a474 28bd
000001d0: f602 bcbc 24f8 c4bb 105c 1a3d d223 16bd
000001e0: d4f9 c13b 354a 303d 57cf a73c ebd0 0d3d
000001f0: 0f0f 8abc 3db0 85bc 99db fdbc fdf4 dbbc
00000200: 60c3 993c 8e5c a1bb cb70 d4bc 6327 02bd
00000210: 1942 cc3c 6154 6a3b 9462 0f3d 339c 19bd
00000220: 276c f93c af5e 943c eb5c 093b 735e ac3b
00000230: 00e5 a3bc 85f8 f4bb c21d 583c 3ef4 47bc
00000240: a1b0 61bc cfaf a4bb 9c18 13bd f476 68bc
00000250: a205 e33c 33aa 1bbd 8fc2 6b3c b7b7 513c
00000260: 8e31 c7bc e220 f43c 6553 0ebc 8c6e c8bc
00000270: 976d ee3c e665 6a3c a325 d13c 0e5f 68bc
00000280: db32 ac3c 29eb aebc 7ab4 d73c 0916 74bc
00000290: d3bd 773c ce3d 15bd 68df f7bc c035 b53c
000002a0: 0579 5a3b bff1 3ebc e978 f13b d4f5 fcbc
000002b0: 725e 8bbc 035a 29bd 4a9a f33c 3e5c 69bc
000002c0: 87b4 03bd ae5f 033d 00dd a9bb 62ad de3c
000002d0: 00bc d7b9 8717 29bd 069c f73c 360b 113d
000002e0: fb93 9dbb 85a5 093d a2b7 c83c 4942 823b
000002f0: e2a9 11bd 10d5 263d 6dcc ee3b e53c 8e3c
00000300: afd5 ea3c 7913 303b 3dc6 823c 07df 663a
00000310: 555d e03c d76a 86bc d49f 5c3c de4d 1d3d
00000320: e308 db37 7d68 523d d146 553d e688 c03c
00000330: 09ae 4b3d 581d dfbb 0d41 3e3c b6a2 c53c
00000340: ff3b 053d 3a9f b33c 2a0f df3c 1385 d8bc
00000350: 0f4b 1e3d 73cd eebc 94c6 27bd f24b c53c
00000360: 7505 223d 124c ef3c ea8d ae3c bee6 83bc
00000370: 490f 0c3d 98a6 aa3c e079 fabc dd52 1e3d
00000380: 0e79 07bd d9f3 45bc ef59 f1bb 62dd ddbc
00000390: 53d5 0d3d a59b ebbc 80ff ee3c c42d ab3c
000003a0: 1ac7 5b3c 580c b1bc 891b 8cbc 4bd8 6fbb
000003b0: 4410 f9bb 477a 1c3c 6a1b 17bd 8553 053d
000003c0: ac56 143d 855c 153d feea 5bbc 5f02 ff3c
000003d0: 4417 0c3d b7be 9b3c de6c f33b 5b5c 073d
000003e0: efc8 713c 3025 b23c dd9b b13c 2fac 17bd
000003f0: 09e6 c63c 5d48 8bbb 65e4 113d 4009 053d
-0.0017031751 -0.014155399 -0.014587701 0.019758284 -0.034412287 -0.020662766 0.012232991 0.0075720283
0.033586394 0.024578054 0.03947391 -0.039459642 0.03324873 -0.007319689 -0.035375062 -0.0008997294
-0.0009213065 -0.01604639 -0.0077093244 -0.012871936 -0.009234324 -0.038465377 8.45677e-05 -0.003643854
-0.024635322 0.013822589 0.014074335 0.0054924483 0.047232073 -0.019669577 -0.012524689 -0.0025192865
0.00471078 -0.033552196 0.033460382 0.037775025 -0.009043822 0.011897784 0.032453608 0.016864669
-0.022219554 0.02877272 0.037986793 0.040163163 0.027908342 0.007054102 0.030958695 0.041550804
0.00840848 -0.011357018 0.022456512 -0.019260284 0.041154724 0.017225914 -0.0017719766 -0.020980706
-0.043179754 -0.015773496 -0.023028417 -0.014157379 0.0132773835 0.0039963005 -0.036014467 -0.026231635
0.025084626 -0.021601766 0.03639504 0.031339057 0.0036153875 -0.020779084 0.020824058 0.01481613
0.04082512 0.031547725 -0.032240175 -0.01803966 0.009224943 -0.029973416 -0.008717428 -0.036658686
0.036691718 -0.011144957 -0.03402801 -0.0031512268 -0.0069261156 0.004266587 -0.028690847 -0.03876251
0.015697854 0.037440687 0.032961782 0.0065721986 -0.036594596 0.013818324 -0.041908376 0.03511379
0.0148567315 0.03864258 -0.02751747 0.0077668284 0.00828845 0.026149575 0.019098878 -0.0157463
-0.02242647 0.0012799222 0.03695899 -0.019574745 -0.0273231 0.03135229 0.030721687 -0.016852964
-0.027531717 -0.030709032 0.01754308 -0.041126862 -0.02295063 -0.006011026 0.037685454 -0.036655255
0.0059196744 0.04303952 0.02048461 0.034623068 -0.016852884 -0.016319389 -0.030988501 -0.026850218
0.01876992 -0.0049243635 -0.02593269 -0.031775843 0.024933862 0.003575586 0.03500612 -0.03750248
0.030447079 0.018111555 0.0020959924 0.0052602827 -0.020006657 -0.007475915 0.013190689 -0.012204228
-0.013775022 -0.005025841 -0.03591214 -0.014188517 0.027712647 -0.03800411 0.014389648 0.012800149
-0.024315622 0.029800836 -0.008686875 -0.024466775 0.02910499 0.014306521 0.025530642 -0.014182819
0.021020344 -0.021352367 0.026331175 -0.014897832 0.015120941 -0.036435895 -0.030257896 0.022120357
0.0033336293 -0.011654316 0.00736915 -0.030878939 -0.017012808 -0.041345607 0.029736657 -0.014243184
-0.032154586 0.03207367 -0.005183816 0.027182285 -0.00041148067 -0.041282203 0.030225765 0.035411082
-0.0048089004 0.033605117 0.024501625 0.003975187 -0.035562404 0.040730536 0.007287553 0.017363021
0.028666345 0.0026867075 0.015963668 0.00088070374 0.027388254 -0.016408367 0.01346584 0.038404338
2.6110973e-05 0.05136918 0.05206949 0.023502778 0.04972652 -0.006808918 0.011612189 0.024125438
0.03252792 0.021926511 0.02722891 -0.026430642 0.0386458 -0.0291507 -0.040960863 0.024084065
0.039555985 0.029211078 0.021307904 -0.016101237 0.034194265 0.020831391 -0.030575693 0.038653243
-0.03307443 -0.012082064 -0.0073654572 -0.027083103 0.03462727 -0.02876074 0.029174566 0.020895846
0.013414169 -0.021612331 -0.017102974 -0.0036597427 -0.007600816 0.009550638 -0.03689138 0.032550354
0.03621547 0.036465187 -0.013422726 0.03112906 0.034201875 0.019011838 0.0074287495 0.03304706
0.014757379 0.021746248 0.021680767 -0.03702944 0.024279611 -0.0042505697 0.035618205 0.032479525

conv3.bias f4 [3]
00000000: 8821 3f3d 49b7 023c 576f 96bc
0.046662837 0.007978269 -0.018363638
