weights/weights_1em3.pth (torch_old, 317565 bytes, 6 tensors)

conv1.weight f4 [128, 3, 3, 3]
0	0x3de1d1ef	0.1102637
1	0xbd3ef69d	-0.046621908
2	0xbe3ec47b	-0.18629639
3	0xbd1027d3	-0.03519423
4	0xbdcffb92	-0.10155405
5	0x3e000d42	0.12505057
6	0xbde6076f	-0.112318866
7	0x3dc6fa43	0.097157024
8	0x3c977da8	0.018492535
9	0x3e3557bd	0.17709251
10	0xb9c1a1f0	-0.0003693248
11	0xbcfe4618	-0.031039283
12	0xbd2f1e17	-0.042753305
13	0x3d9a011f	0.07519745
14	0x3e1d70de	0.15375087
15	0x3e3c8c9e	0.18413016
16	0x3d408f28	0.047011524
17	0x3c9e547e	0.019327398
18	0xbbac73ac	-0.0052628126
19	0x3d73c02f	0.059509452
20	0xbd308db4	-0.04310389
21	0x3c4f320d	0.01264621
22	0x3daaf85b	0.08348151
23	0xbdca48b4	-0.09877148
24	0xbde03599	-0.10947723
25	0x3db8a230	0.0901531
26	0x3dfecca0	0.12441373
27	0xbc7feac6	-0.015619939
28	0x3e4740ac	0.19458264
29	0x3d89ec1f	0.0673449
30	0xbddcc205	-0.10779194
31	0x3de97107	0.113985114
32	0x3e328fb8	0.17437637
33	0x3e1a8782	0.15090755
34	0x3e00b108	0.12567532
35	0x3c66e763	0.014093253
36	0xbd85b446	-0.06528525
37	0xbe30d284	-0.17267805
38	0xbd5f9940	-0.05458951
39	0xbd281d66	-0.04104366
40	0xbe411e29	-0.18859161
41	0xbe1931a2	-0.1496034
42	0xbb8f4aba	-0.004372922
43	0xbe2ba181	-0.16760828
44	0x3d3469b3	0.044046115
45	0x3cecf72c	0.028926454
46	0x3d31a22a	0.043367542
47	0xbcb9dec5	-0.022689233
48	0xbd73f3e1	-0.059558753
49	0x3dd85d4b	0.10564669
50	0x3e06b234	0.13153917
51	0xbdbb21a0	-0.09137273
52	0xbd2a78fc	-0.041619286
53	0x3d46ed06	0.048565887
54	0x3d039c81	0.032131676
55	0xbdcacbe6	-0.09902172
56	0xbe2e7a05	-0.17038734
57	0xbe162d90	-0.14665818
58	0xbe2c302d	-0.16815253
59	0xbd603535	-0.054738242
60	0x3d93f468	0.07224351
61	0x3dce9cd0	0.10088503
62	0x3d9e166c	0.077191204
63	0xbe255c92	-0.16148594
64	0xbc960d82	-0.018316988
65	0x3e3fc50e	0.18727514
66	0xbd57aaa9	-0.05265299
67	0xbe006177	-0.1253718
68	0xbd4fee77	-0.050764527
69	0x3d8fb110	0.07016194
70	0x3e22984e	0.15878412
71	0x3e359313	0.17731886
72	0xbd548aac	-0.05189006
73	0x3e315b6a	0.17320028
74	0x3d895cb9	0.067071386
75	0xbdccf4ae	-0.100076064
76	0xbdc60d09	-0.09670455
77	0xbe076df6	-0.1322554
78	0x3dd83890	0.105576634
79	0x3e0046ef	0.12527059
80	0x3dba2fa8	0.09091121
81	0xbe0e50e5	-0.13898046
82	0xbdc3cbda	-0.09560366
83	0x3db52a5d	0.08845971
84	0x3d598406	0.053104423
85	0x3d3d42de	0.046206348
86	0x3d5f00ce	0.054444127
87	0xbc6d7021	-0.014492066
88	0xbe16cf17	-0.14727436
89	0xbd3eb907	-0.046563175
90	0x3e3da364	0.1851936
91	0x3e0b86a9	0.13625588
92	0xbd28e856	-0.041237198
93	0x3d146479	0.03622863
94	0xbde60119	-0.11230678
95	0xbe440f22	-0.19146398
96	0xbd284cd6	-0.0410889
97	0xbda53213	-0.080661915
98	0xbcbf5d17	-0.023359818
99	0x3dc1615d	0.09442399
100	0x3e164c92	0.14677647
101	0xbdf5cfca	-0.12002523
102	0xbd318023	-0.04333509
103	0xbe1bc404	-0.15211493
104	0xbcb0a9df	-0.021565376
105	0x3dd33f2f	0.10314786
106	0x3b6ce9fa	0.0036150203
107	0xbd844bac	-0.06459746
108	0x3d880a06	0.06642537
109	0x3e134a90	0.14383912
110	0x3d6f506f	0.058426317
111	0x3e204c47	0.15654097
112	0x3e0f4592	0.13991383
113	0xbb9bb213	-0.0047514527
114	0x3e19ed1f	0.15031861
115	0x3e0da914	0.1383403
116	0xbd2a1861	-0.041527156
117	0x3df039bb	0.11729761
118	0xbd83b938	-0.06431812
119	0xbd71e3ee	-0.05905526
120	0xbe121522	-0.14265874
121	0x3d888640	0.06666231
122	0x3e02f975	0.12790473
123	0x3e33f7e2	0.17575029
124	0xbe255a87	-0.16147815
125	0xbd95a00a	-0.07305916
126	0x3d3cae91	0.046064917
127	0x3c840f98	0.016120717
128	0xbdbce283	-0.09222891
129	0x3ce10579	0.02746843
130	0xbdecd861	-0.115647085
131	0xbd572a31	-0.05253047
132	0xbe142b0c	-0.14469546
133	0xbe2cc57b	-0.16872208
134	0xbdd6a877	-0.10481351
135	0x3df599d2	0.119922295
136	0xbd8db1d0	-0.06918681
137	0x3e09cd8a	0.13457313
138	0xbdd194f3	-0.10233488
139	0xbd5ad6d2	-0.053427525
140	0xbd4fd2b5	-0.050738055
141	0x3df10f91	0.11770547
142	0x3c103a63	0.008802983
143	0xbb805994	-0.0039169285
144	0xbe22477c	-0.15847582
145	0x3d29304b	0.04130582
146	0xbc9c8a6d	-0.019108975
147	0xbd8936c6	-0.066999
148	0xbe4938cb	-0.19650571
149	0x3d43761a	0.047720052
150	0x3cdc57f0	0.0268974
151	0xbd219567	-0.03944912
152	0x3dced57b	0.10099312
153	0x3d52482f	0.05133837
154	0x3b8965d6	0.004193048
155	0xbdf0b613	-0.11753478
156	0x3dfed276	0.12442486
157	0x3d00417d	0.031312454
158	0xbd9328d1	-0.071855195
159	0x3df8f7c5	0.12156633
160	0xbbaad7f4	-0.005213732
161	0x3d30eeea	0.043196596
162	0xbe1ffa82	-0.15622905
163	0x3e029bcc	0.12754744
164	0x3cb8116f	0.02246925
165	0x3e095904	0.13412863
166	0xbe63aeeb	-0.22234695
167	0xbddfdcb5	-0.109307684
168	0xbdfcf4ea	-0.12351401
169	0xbd9f1197	-0.07767027
170	0xbdf9413d	-0.12170646
171	0xbe42b137	-0.19012915
172	0x3da00afa	0.078145936
173	0x3d9f4af3	0.07777967
174	0xbdf24d15	-0.118311085
175	0xbe42857e	-0.18996236
176	0xbd5d3ae0	-0.054011226
177	0x3d3b150a	0.04567436
178	0xbcfa3c56	-0.030546349
179	0xbe2ccc4b	-0.16874807
180	0xbe07ace8	-0.13249552
181	0xbd482613	-0.048864435
182	0x3ddbfdc0	0.10741758
183	0xbe0cdd37	-0.13756262
184	0x3b8aa79c	0.0042314064
185	0xbe28909a	-0.16461411
186	0x3befffb4	0.0073241834
187	0xbcd0d3a3	-0.025491541
188	0xbdd6dacd	-0.10490952
189	0x3e099ec8	0.13439476
190	0x3e095987	0.13413058
191	0xbe3d038f	-0.18458389
192	0xbdc8add7	-0.09798782
193	0x3cc092b9	0.023507463
194	0xbb04d315	-0.0020267416
195	0xbdd8ce46	-0.105862185
196	0xbdbefd36	-0.0932564
197	0xbd8453bf	-0.06461286
198	0xbcd81b6f	-0.026380269
199	0x3e248d3a	0.16069499
200	0x3d8bd838	0.0682835
201	0x3d2a071a	0.04151068
202	0xbe1cd6af	-0.1531627
203	0xbe02ddfa	-0.1277999
204	0x3dc8c793	0.09803691
205	0xbd78608e	-0.060638957
206	0xbe4d95ee	-0.20076725
207	0x3d38613f	0.045014616
208	0x3e305e97	0.17223583
209	0x3cb4a530	0.022051424
210	0x3de02d19	0.10946102
211	0x3da79e26	0.08184461
212	0xbd1c54b6	-0.038166724
213	0xbc9757f2	-0.018474553
214	0xbd0e6ba4	-0.034770623
215	0xbd4cbe5e	-0.049986236
216	0xbd25f9cc	-0.040521428
217	0x3dd4b145	0.10385374
218	0x3e672c1c	0.2257542
219	0xbdc128b6	-0.09431593
220	0xbe059b58	-0.1304754
221	0x3dadf297	0.08493536
222	0xbdb8606a	-0.090027645
223	0x3bd86ee1	0.0066050147
224	0xbe0d3f08	-0.13793576
225	0x3d907b02	0.07054712
226	0xbde64732	-0.11244048
227	0xbcc84187	-0.024445308
228	0x3e1443f2	0.14479044
229	0xbdb150dd	-0.086580016
230	0xbcaa28a0	-0.020771325
231	0xbdd5ae04	-0.104335815
232	0x3c8bb504	0.017054088
233	0xbde6072b	-0.11231836
234	0x3e373320	0.17890596
235	0xbdb2bf91	-0.08727945
236	0x3d8fb0d1	0.07016147
237	0xbd8aebb5	-0.06783239
238	0x3de949da	0.11391039
239	0x3e500609	0.20314802
240	0x3b794b7e	0.0038039382
241	0xbe18fde3	-0.149406
242	0xbdb72164	-0.08941916
243	0xbd8fdfd1	-0.070251115
244	0xbe1d901f	-0.15387009
245	0x3e091d45	0.13390072
246	0x3df8652c	0.12128672
247	0xbe0549db	-0.13016455
248	0xbd6efab2	-0.05834455
249	0xbde2c27e	-0.11072253
250	0xbdae51e2	-0.08511712
251	0xbe382fe7	-0.17987023
252	0x3e11d65b	0.14241926
253	0x3bd82de6	0.0065972684
254	0x3c25efc5	0.010127966
255	0x3e3a9211	0.18219782

conv1.bias f4 [128]
0	0x3d9b975c	0.07597229
1	0xbde25b34	-0.11052552
2	0xbd854b3d	-0.06508491
3	0x3e3411d4	0.17584926
4	0xbe2f7f68	-0.17138445
5	0x3d64cdc7	0.055860307
6	0x3ce80320	0.028321803
7	0xbd2aa7ff	-0.04166412
8	0x3e08df4f	0.13366435
9	0x3c4b5b90	0.012411967
10	0x3dc4d12b	0.09610208
11	0x3dd848f4	0.1056079
12	0xbe0c1999	-0.1368164
13	0xbd537394	-0.051623896
14	0x3de30af8	0.110860765
15	0x3db1eed3	0.0868813
16	0x3dddaae6	0.10823612
17	0x3e25647c	0.16151613
18	0xbca538ea	-0.02016874
19	0x3d357342	0.04429937
20	0x3da339ee	0.079700336
21	0x3d80eae4	0.06294802
22	0xbe2e99e5	-0.17050894
23	0x3d96708a	0.07345684
24	0x3da88058	0.08227605
25	0xbe0975eb	-0.13423888
26	0x3e034dff	0.12822722
27	0xbe21fd75	-0.15819342
28	0x3ab6a117	0.0013933507
29	0xbe462686	-0.19350633
30	0x3e19a25b	0.1500334
31	0xbe05d0ab	-0.13067882
32	0x3d9a6236	0.075382635
33	0x3daf17cf	0.08549463
34	0x3dfaa825	0.12239102
35	0xbcce958e	-0.025217798
36	0xbd4e2170	-0.050324857
37	0xbe2f10a5	-0.17096193
38	0x3e10762f	0.14107583
39	0xbd62d0bf	-0.055374857
40	0x3c8ed0a4	0.017433472
41	0xbd3aa07a	-0.0455632
42	0x3e238b1b	0.15971033
43	0x3cb6a2f9	0.022294508
44	0xbda0142d	-0.07816348
45	0x3e2b73ca	0.16743389
46	0x3d531aed	0.05153935
47	0xbc43e63a	-0.011956746
48	0x3e0538ff	0.13010024
49	0x3d6442db	0.05572782
50	0xbe0d1451	-0.13777281
51	0x3df491c2	0.119418636
52	0x3d3f26a5	0.046667714
53	0x3cfbe533	0.03074894
54	0xbe3b3c59	-0.1828474
55	0xbdbe323a	-0.09286924
56	0xbda56a23	-0.080768846
57	0xbdc940cd	-0.09826813
58	0xbda425e7	-0.08015042
59	0xbde253e7	-0.11051159
60	0x3e08cea2	0.13360074
61	0x3d059de9	0.032621298
62	0x3d0a1542	0.03371168
63	0x3ddaea27	0.10689192
64	0xbe2dabf6	-0.16960129
65	0xbc79ed78	-0.015254371
66	0xbda0ad60	-0.07845569
67	0xbccc29e3	-0.024922317
68	0x3de90688	0.11378199
69	0xbdd99172	-0.106234446
70	0x3d8a1265	0.0674179
71	0xbe29effa	-0.1659545
72	0x3dfa97fa	0.122360185
73	0xbddd1109	-0.10794265
74	0xbdd07054	-0.10177675
75	0x3d2c83d3	0.042117905
76	0xbe058391	-0.1303847
77	0x3e07437a	0.13209334
78	0x3df0dc97	0.11760824
79	0xbe3073e1	-0.17231704
80	0xba6e39d2	-0.00090875954
81	0x3d8ce17a	0.06878944
82	0xbe031658	-0.12801492
83	0x3d957235	0.07297174
84	0x3daf7649	0.08567483
85	0xbcb5df76	-0.022201281
86	0x3d7c593d	0.06160854
87	0xbc74a7f6	-0.014932623
88	0xbdaaf888	-0.08348185
89	0xbdc0d3d2	-0.094154015
90	0x3e41762a	0.18892732
91	0x3dca5fb6	0.09881537
92	0xbd2600fd	-0.040528286
93	0x3e0e086a	0.13870397
94	0xbb01d1b4	-0.001980883
95	0xbd0a6f53	-0.033797573
96	0x3b8aaf8a	0.0042323517
97	0xbe19aa20	-0.15006304
98	0x3da022c8	0.07819134
99	0x3d32c491	0.04364449
100	0x3c5ddb4a	0.013541052
101	0x3b491731	0.003068399
102	0xbe04db19	-0.12974204
103	0x3d5e8912	0.05432994
104	0xbe0082b0	-0.12549853
105	0xbe43e0b0	-0.1912868
106	0x3db3d26b	0.087803684
107	0x3dc5d49c	0.09659693
108	0xbd3acf1c	-0.04560767
109	0xbe0cb5f8	-0.1374129
110	0x3da3c082	0.07995702
111	0x3def73b0	0.116919875
112	0x3c057f3f	0.008148014
113	0x3c752106	0.014961487
114	0xbe14cace	-0.14530489
115	0xbc2ebd4c	-0.010665249
116	0x3d88fa99	0.06688423
117	0xbd00fede	-0.03149306
118	0xbc122ab8	-0.008921318
119	0xbe00caa0	-0.12577295
120	0x3dca10c7	0.09866481
121	0x3d167343	0.036731016
122	0x3da8e57e	0.08246897
123	0xbd483b11	-0.048884455
124	0xbe2783ce	-0.16358873
125	0x3e399752	0.1812413
126	0xbd9a37e3	-0.07530191
127	0x3db4661a	0.08808537

conv2.weight f4 [64, 128, 3, 3]
0	0x3c161d7e	0.009162305
1	0xbc5792ba	-0.013157541
2	0x3b42927b	0.002968936
3	0x3b9e33b5	0.0048279413
4	0x39c5c35c	0.00037720322
5	0xbc102f90	-0.008800402
6	0x3c73cbb6	0.014880111
7	0xbd0cdd3b	-0.03439067
8	0xbd0e08b7	-0.03467628
9	0x3c096266	0.008385276
10	0xbc950ba1	-0.018194022
11	0xbd09514d	-0.0335248
12	0xbcd91831	-0.026500793
13	0x3b038078	0.0020065587
14	0xbc730509	-0.014832743
15	0x3c945fcb	0.018112084
16	0xbcba58ab	-0.022747358
17	0x3cb3f16e	0.021965709
18	0x3b185802	0.0023245816
19	0xbb86fb53	-0.0041193157
20	0x3cdd02ac	0.026978813
21	0xbadef3d3	-0.0017009921
22	0x3b61ba07	0.0034443156
23	0x3b67c7e9	0.0035366958
24	0xbc25b4dd	-0.010113922
25	0xbca7d0a3	-0.020485228
26	0xbb365986	-0.0027824356
27	0xbcd50c02	-0.026006702
28	0xba8d1fb0	-0.001076689
29	0xbcf9ef8c	-0.030509733
30	0x3ca96465	0.020677755
31	0xbca4c62e	-0.02011403
32	0x3c84da34	0.016217329
33	0x3bc35fb2	0.0059623355
34	0x3b86da8f	0.0041154097
35	0x3c9196d0	0.017772108
36	0xbbd9cfb9	-0.006647077
37	0xb8b2c002	-8.523466e-05
38	0xbcfe80bf	-0.03106725
39	0x3ca029ee	0.019551244
40	0xbcf03063	-0.029319948
41	0xbc2471dd	-0.010036913
42	0x3c15ec62	0.009150596
43	0xbcb0e001	-0.021591188
44	0xbbb3739e	-0.005476429
45	0xbb90c597	-0.004418086
46	0x3ca61351	0.020272883
47	0x3b0dc1a1	0.0021630304
48	0x3c286df3	0.01028012
49	0xbcefd743	-0.02927745
50	0xbd14c661	-0.036322
51	0xbd015ba1	-0.031581525
52	0xbca90ec5	-0.020636925
53	0xbc8e0f73	-0.017341351
54	0x3b696294	0.0035611736
55	0x3b4ba060	0.0031070933
56	0x3bc784ac	0.0060888138
57	0x3c9dce98	0.01926355
58	0x3c0b46b3	0.008500743
59	0xbcd2de6b	-0.025740823
60	0x3c6135a3	0.013745698
61	0xbcc04c85	-0.023473987
62	0x3cc0d794	0.023540296
63	0xbc94f3ec	-0.018182717
64	0xbcc9561a	-0.02457719
65	0x3caefef5	0.021361807
66	0x3cb81dc5	0.022475133
67	0x3c2890dc	0.010288443
68	0x3bfc36df	0.007696971
69	0xbc5d1bfc	-0.0134954415
70	0x3b82170a	0.0039700316
71	0x3c054b4f	0.008135631
72	0x3bb51ba3	0.005526976
73	0xbcc7c8e1	-0.024387779
74	0xbb37c8dc	-0.0028043306
75	0xbcfee7cb	-0.031116387
76	0xbcd7665c	-0.026293926
77	0x3b990882	0.0046702037
78	0xbc4877c8	-0.012235589
79	0xbcfb225c	-0.030656032
80	0x39f5fadc	0.00046916946
81	0xbcd1f6b4	-0.025630333
82	0xbc019c1c	-0.0079107545
83	0x3c7fef9a	0.01562109
84	0xbbcabdda	-0.006187183
85	0x3ca15a43	0.01969636
86	0x3cbbc9d5	0.02292339
87	0xbc1da510	-0.0096218735
88	0xbce55771	-0.027995797
89	0xbd007d4a	-0.031369485
90	0xbc0a12fb	-0.008427377
91	0xbbc38057	-0.005966227
92	0xbcb8fe8a	-0.022582311
93	0x3c215d5b	0.009848918
94	0xbcbed91b	-0.023296883
95	0xbc206856	-0.009790501
96	0xbd05c7eb	-0.03266136
97	0x3c7c11ab	0.015385072
98	0xbcc2e1b5	-0.023789266
99	0x3c92fd7d	0.017943138
100	0x3b537b2c	0.003226946
101	0xbc92aed4	-0.01790563
102	0xbcf663de	-0.030076917
103	0xbcfd24dd	-0.030901367
104	0xbcc8d4aa	-0.024515469
105	0x3c4be256	0.012444099
106	0xbc14e663	-0.009088132
107	0x3aaf9308	0.0013395259
108	0x3c691301	0.014225722
109	0xbcf974fe	-0.030451294
110	0xba9d9e33	-0.0012025296
111	0x3b85f07f	0.0040875073
112	0xbc9c19fc	-0.019055359
113	0xbc602965	-0.013681744
114	0x3c627584	0.013821963
115	0x3c3f662c	0.0116820745
116	0xbb16cca6	-0.0023010164
117	0xbc18ac4c	-0.0093184225
118	0xbb913629	-0.004431505
119	0xbd10895c	-0.035287246
120	0x3b5b5152	0.0033465219
121	0x3bdfea31	0.0068333377
122	0x3c1d46a0	0.009599358
123	0xbc873035	-0.01650248
124	0xbb395457	-0.002827903
125	0x3c45ad79	0.012065285
126	0xbc53ada5	-0.012919818
127	0xbd1100b7	-0.035401072
128	0xbd02100d	-0.03175359
129	0x3bcee2dc	0.006313665
130	0xbc55b842	-0.013044419
131	0x3ca015ec	0.019541703
132	0xbc7f82c7	-0.015595145
133	0xbbae584a	-0.0053205835
134	0xbcf7f78c	-0.030269407
135	0xbbf1f3a4	-0.0073837806
136	0x3b2ae688	0.0026077349
137	0x3c8ffd35	0.017576793
138	0x3c49ce64	0.012317274
139	0x3c6c26ee	0.014413578
140	0xbcdb243e	-0.02675068
141	0x3cb94d0c	0.022619747
142	0x3c9341c2	0.017975692
143	0xbc83d7d5	-0.016094128
144	0xbd1124be	-0.03543543
145	0x3c05ec47	0.008174009
146	0x3b4aa74c	0.003092247
147	0xbcff9531	-0.03119907
148	0x3b5caeec	0.0033673597
149	0xbca3e851	-0.020008238
150	0x3bd716ee	0.0065640127
151	0xbc590777	-0.013246409
152	0xbcfc10b6	-0.030769687
153	0x3bc4ad12	0.006002077
154	0x3acca75e	0.0015613844
155	0xbbedfa42	-0.007262499
156	0xbb616b2d	-0.0034396157
157	0xbc58ae79	-0.013225191
158	0xbc7e6eec	-0.0155293755
159	0xbaec6bd2	-0.0018037504
160	0xbbab2b4a	-0.0052236663
161	0xbbe6be4f	-0.0070417295
162	0xbcb0f559	-0.021601366
163	0xbb8aed52	-0.0042397166
164	0xbccb107c	-0.024788134
165	0xbbc53c9d	-0.0060191886
166	0x3ca01f05	0.019546041
167	0xbcfcec83	-0.030874496
168	0x3c70824d	0.014679504
169	0x3a209261	0.0006125328
170	0xbb9e3ee1	-0.004829273
171	0x3c070480	0.008240819
172	0xbccb2cde	-0.024801668
173	0xbc882fdd	-0.016624385
174	0xbc1270cd	-0.008938027
175	0xbac97b90	-0.0015371908
176	0x3bd2b147	0.0064298245
177	0xbc291657	-0.010320268
178	0xbc7ecd3f	-0.015551864
179	0xbcab45f0	-0.020907372
180	0xbc245c40	-0.01003176
181	0xbcc15c58	-0.023603603
182	0x3c2d963b	0.0105949
183	0x3bc64373	0.006050521
184	0xbbbaa871	-0.0056963493
185	0xbcf3af67	-0.029746724
186	0x3c99a633	0.018756008
187	0xbcadaac1	-0.021199586
188	0x38f4a48d	0.000116654766
189	0xbca2b2cb	-0.019860646
190	0xbc602fd4	-0.013683278
191	0x3bfa27d3	0.007634142
192	0x3c48b05e	0.01224908
193	0x3b83355a	0.0040041627
194	0xbc481afb	-0.012213464
195	0x3c494f6e	0.012287004
196	0xbc9567b0	-0.018237919
197	0xbbd5c9fb	-0.006524322
198	0x3ba5b5f0	0.005057089
199	0xbbaab79f	-0.0052098776
200	0xba726116	-0.00092460343
201	0x3c89e6d8	0.016833708
202	0xbcb9da30	-0.022687048
203	0xbcae41cf	-0.021271614
204	0x3c998692	0.018740926
205	0xbb8da682	-0.004322828
206	0xbcdd186e	-0.026989188
207	0xbc052d7f	-0.008128523
208	0xbc221084	-0.009891633
209	0xbc6dab1d	-0.014506129
210	0xbc3aeb23	-0.0114086
211	0xbca7dbc9	-0.020490544
212	0x39d036cd	0.0003971368
213	0xbcdced26	-0.02696855
214	0xbc101023	-0.00879291
215	0xba540780	-0.0008088276
216	0xbc922016	-0.017837565
217	0x3b9723c3	0.0046124174
218	0xbcc5d5fd	-0.02414989
219	0xbc29fa38	-0.010374598
220	0x3c2e5e5b	0.010642613
221	0xbc3cb3d2	-0.011517482
222	0x3b67a2ed	0.0035344914
223	0xbc1c2971	-0.009531365
224	0x3bea8a57	0.0071576047
225	0xbc9650f3	-0.018349146
226	0xbcbb009c	-0.022827439
227	0xbb87f4fa	-0.0041490765
228	0x3c3bf2c5	0.011471455
229	0xbaefb198	-0.001828718
230	0x3c7e58f4	0.015524138
231	0x3bd2ff5d	0.006439133
232	0xbc540812	-0.012941377
233	0xbd0b565a	-0.0340179
234	0x3c2d5531	0.010579393
235	0xbac09522	-0.0014692883
236	0xbca862b0	-0.02055487
237	0xbcacbabb	-0.021085134
238	0x3be65415	0.0070290663
239	0xbc975708	-0.018474117
240	0xbb7c2b20	-0.0038477853
241	0x3bc962a5	0.0061457925
242	0xbb95d16b	-0.0045720837
243	0x3c269ae4	0.010168765
244	0x3b2baedd	0.0026196756
245	0x3b8c7f30	0.004287623
246	0x3b6fa939	0.003656937
247	0xbce7a0df	-0.028274952
248	0x3c8533b2	0.016260002
249	0xbcda8861	-0.026676359
250	0xbac93bd7	-0.0015352917
251	0xbcb50bdd	-0.022100383
252	0xbb44ba22	-0.003001817
253	0xbbed8732	-0.0072487826
254	0x3bd053e1	0.0063576554
255	0x3c80ed0d	0.015738035

conv2.bias f4 [64]
0	0xbc70ad0c	-0.014689695
1	0x3cbe7a91	0.023251804
2	0x3a2e0507	0.00066383224
3	0xbbad07d2	-0.0052804733
4	0x39c9c9da	0.000384881
5	0xbcd267e5	-0.025684306
6	0x3ce43889	0.02785899
7	0xbbeaa84f	-0.007161177
8	0xbcd33796	-0.025783341
9	0x3bc59682	0.006029905
10	0x3cc02484	0.023454912
11	0xbc089cd0	-0.008338168
12	0x3c905fe2	0.017623845
13	0x3c45eb09	0.0120799625
14	0x3c06ac06	0.0082197245
15	0xbb1f82a4	-0.0024339342
16	0xbc3bc197	-0.01145973
17	0xbc50a445	-0.012734477
18	0xbbb5d542	-0.005549104
19	0xbcc2a0ff	-0.02375841
20	0xbb82a307	-0.0039867195
21	0xbcd3de4d	-0.025862837
22	0xbb1f5698	-0.0024313089
23	0x3cb41142	0.021980885
24	0xbc1d6d73	-0.009608614
25	0xbc762006	-0.015022283
26	0x3cca9ceb	0.024733027
27	0xba30b599	-0.00067409273
28	0xbc8d6ffc	-0.017265312
29	0xbc6095ac	-0.01370756
30	0xbc19a370	-0.009377345
31	0xbcf6499a	-0.030064393
32	0x3d61a1b8	0.055085868
33	0x3c5224da	0.012826169
34	0xbc0bf32d	-0.008541864
35	0x3d0cacc6	0.034344457
36	0x3c9be773	0.019031262
37	0x3ae8982c	0.0017745546
38	0xbafa8c71	-0.0019115341
39	0x3c1f3a2c	0.009718459
40	0x3ca9f75a	0.02074783
41	0xbb04ddee	-0.0020273882
42	0xbbc017ce	-0.0058622127
43	0xbb82bfc0	-0.0039901435
44	0xbbaa80c8	-0.00520334
45	0x3c41cc3a	0.011828477
46	0xbb511c38	-0.0031907689
47	0xbd01dc54	-0.031704262
48	0xbcce5ffc	-0.025192253
49	0xbbe6d768	-0.0070447214
50	0x3c85d4b0	0.016336769
51	0x3c9d4386	0.019197237
52	0xbabec86c	-0.001455558
53	0xbc12d5e3	-0.008962127
54	0xbc5a5338	-0.013325505
55	0x3c576b80	0.013148189
56	0x3c90d134	0.01767788
57	0x3cad43e0	0.02115053
58	0xbbe8ec53	-0.00710825
59	0xbc867490	-0.016413003
60	0x3c988043	0.018615847
61	0x3cb3ac26	0.021932673
62	0x3c11801f	0.008880644
63	0xbcb0a7bd	-0.021564359

conv3.weight f4 [3, 64, 3, 3]
0	0xbbd5ee73	-0.0065286695
1	0x3d1d545f	0.03841054
2	0x3c4bae70	0.012431726
3	0x3d1a42ad	0.037661243
4	0x3caffe55	0.02148358
5	0xbc9378d9	-0.01800196
6	0xbd02ba61	-0.031916026
7	0xbd0c927c	-0.034319386
8	0xbc2aa596	-0.010415455
9	0xbc01379b	-0.0078867925
10	0xbd01cc5f	-0.031689044
11	0x3cf8fa6b	0.030392846
12	0xbcce8dd8	-0.02521412
13	0x3c7cc925	0.015428816
14	0x3d31d14d	0.043412495
15	0xbca72201	-0.020401957
16	0x3c14a608	0.009072788
17	0xbc19039f	-0.009339242
18	0x3cea92c3	0.028634435
19	0xbbab0e69	-0.0052202237
20	0xbc14ba1b	-0.009077574
21	0xbd12e928	-0.035866886
22	0x3d11ce64	0.03559722
23	0x3cd5c9d1	0.02609721
24	0x3c43edc1	0.01195854
25	0x3c95263e	0.018206712
26	0x3a99e001	0.0011739732
27	0x3ca8bd75	0.020598153
28	0xbca4e1af	-0.020127146
29	0x3cae7f9d	0.021301085
30	0x3d049547	0.032368924
31	0xbc9de331	-0.019273372
32	0xbcb02b30	-0.021504968
33	0x3cbfb658	0.023402378
34	0xbc07611f	-0.008262902
35	0x3abc9375	0.0014387207
36	0x3ca1ee5d	0.01976698
37	0x3c5876cd	0.013211918
38	0x3c335a88	0.010946877
39	0xbc412250	-0.011787966
40	0xbd3438ad	-0.043999363
41	0xbb3dfb41	-0.002898887
42	0xbc48a469	-0.01224623
43	0xbc82f3e5	-0.015985439
44	0xbd3294d2	-0.043598957
45	0x3d146683	0.036230575
46	0xbca1e0f7	-0.019760592
47	0x3d0e4d01	0.034741405
48	0x3d517498	0.051136583
49	0x3b7bf719	0.0038446842
50	0x3ca7dcbb	0.020490995
51	0x3c5900b1	0.013244794
52	0xbb9be15c	-0.0047570895
53	0xbcacbe4c	-0.021086834
54	0xbce79470	-0.028269023
55	0xbd2b0314	-0.041750982
56	0x3d1e91df	0.038713332
57	0xbc5fd8be	-0.013662515
58	0x3ceded3e	0.02904379
59	0x3a536523	0.0008064082
60	0xbd0bf2c2	-0.03416706
61	0x3d081cbd	0.033230532
62	0x3cab9cd7	0.02094881
63	0xbc431f5b	-0.011909331
64	0x3c61786d	0.013761622
65	0xbd0f1185	-0.034928817
66	0xbbbe2764	-0.0058030356
67	0x3c5eb908	0.01359392
68	0xbb9b8cd6	-0.0047470136
69	0xbccb4f1a	-0.024817992
70	0x3cfd54dc	0.030924253
71	0x3cee8bd9	0.029119419
72	0xbc92f5c6	-0.01793946
73	0xbd1374d7	-0.0360001
74	0x3cf2732b	0.029595932
75	0xbc877e57	-0.016539736
76	0xbb27c7a2	-0.0025601168
77	0xbc62c3c0	-0.013840616
78	0xbcc88f28	-0.024482325
79	0xbce9ba1c	-0.028531127
80	0xbd15121c	-0.036394224
81	0x3b9f67b4	0.0048646573
82	0xbd10719c	-0.035264596
83	0x3cff9fe0	0.031204164
84	0xbcf8f64a	-0.030390877
85	0xbc8e165e	-0.01734465
86	0x397ce51f	0.00024117947
87	0x3cb712d4	0.022347845
88	0x3c65458e	0.013993634
89	0x3c50c029	0.012741127
90	0x3bb8890e	0.0056315726
91	0x3a95d7b0	0.0011432078
92	0xbc261c97	-0.010138652
93	0xbca353b4	-0.019937374
94	0x3d2aa174	0.04165788
95	0x3c030615	0.007997056
96	0xbbb231a8	-0.0054380484
97	0x3cec6275	0.028855542
98	0xbcc0277f	-0.023456333
99	0xbd05466f	-0.032537874
100	0xbc896e15	-0.016776124
101	0xbd2445be	-0.040105574
102	0xbc8cb8ef	-0.017178027
103	0x3c3c4caf	0.011492892
104	0xbcae20b3	-0.021255827
105	0xbc8ce8aa	-0.017200787
106	0xbb3ddb53	-0.0028969839
107	0x3cd645f4	0.026156403
108	0x3cb2df76	0.02183507
109	0xbccb4c8c	-0.024816774
110	0x3cfca65e	0.030841049
111	0xbd00f2f9	-0.031481717
112	0x3d451c35	0.048122603
113	0x3d48678a	0.048926868
114	0xbcbd7450	-0.023126751
115	0xbc862f45	-0.016379962
116	0x3cc229c5	0.023701558
117	0xbc5ed32e	-0.013600154
118	0x3c614859	0.013750159
119	0x3d25142b	0.040302437
120	0xbcf0af1b	-0.029380372
121	0xbb7006b8	-0.0036625098
122	0xbb0dc24c	-0.0021630703
123	0x3c988b03	0.018620973
124	0x3d36f51b	0.044667345
125	0x3cf8f543	0.030390387
126	0xbc519bf0	-0.012793526
127	0xbd390112	-0.045167036
128	0x3d0f4839	0.034980986
129	0x3c9280c4	0.017883666
130	0x3cde2834	0.02711878
131	0xbd044c74	-0.032299474
132	0xbc92c2a1	-0.017915072
133	0x3bf700cf	0.007537938
134	0x3cd8440a	0.026399631
135	0x3cb0622c	0.021531187
136	0xbcabe696	-0.020983975
137	0xbcf155bd	-0.029459829
138	0x3c23bf60	0.009994358
139	0x3d24a817	0.040199365
140	0xbd079928	-0.033105046
141	0xbb7a8171	-0.0038224126
142	0xbbf17c8e	-0.0073695844
143	0x3cbe3471	0.023218365
144	0x3c802c0f	0.015646009
145	0x3ca3a3ba	0.019975532
146	0xbcd58999	-0.026066588
147	0x3b88c73b	0.0041741407
148	0x3b54813e	0.0032425667
149	0xbc63b1d6	-0.01389738
150	0xbc91c8b3	-0.017795896
151	0x3c8e3af2	0.017362092
152	0xbc5e459e	-0.013566403
153	0x3b312592	0.002703045
154	0x3d1a181d	0.037620652
155	0xbc424fe3	-0.011859867
156	0x3cc106bf	0.023562787
157	0x3c0af81b	0.0084820045
158	0x3c7a8ea0	0.0152927935
159	0x3bc279e8	0.0059349425
160	0x3c4b599e	0.012411503
161	0x3ce97848	0.028499737
162	0x3d081a0d	0.03322797
163	0xbc9d3128	-0.019188479
164	0x3aa47ac1	0.001254879
165	0x3d1c9ac8	0.03823355
166	0x3cc411bf	0.023934243
167	0x3d2c4bdd	0.042064536
168	0x3c9c57f4	0.019084908
169	0x3cd7aa4b	0.02632632
170	0xbd0dc416	-0.03461083
171	0xbcf863aa	-0.030320961
172	0xbc0b74c7	-0.008511729
173	0x3d276f6c	0.040877745
174	0x3c226c2b	0.009913485
175	0x3caeaf71	0.021323891
176	0x3c77aad8	0.015116416
177	0xbb60e65e	-0.0034316997
178	0xbd04a53c	-0.032384142
179	0xbc29406e	-0.010330303
180	0x3c0c8e74	0.008578885
181	0xbc807d7e	-0.01568484
182	0x3af75b5c	0.0018871832
183	0x3ca56743	0.02019084
184	0xbcf08a6b	-0.029362878
185	0xbc09a981	-0.008402229
186	0x3d222f85	0.0395961
187	0x3d1968b3	0.037453365
188	0xbcff7ab7	-0.031186445
189	0x3c1f92a6	0.009739554
190	0x3c074015	0.008255024
191	0xbcb63406	-0.022241604
192	0xbc43debb	-0.011954959
193	0x3c893800	0.016750336
194	0xbcc1d84a	-0.023662705
195	0xbb6aeaa2	-0.0035845418
196	0xbc2fdb53	-0.010733443
197	0xbc27896f	-0.010225638
198	0x3cab7fdf	0.020934997
199	0x3c671531	0.0141041735
200	0x3d04ff42	0.032469995
201	0xbbee72de	-0.007276877
202	0x3cfca2fb	0.030839434
203	0x3d19d803	0.03755952
204	0x3c896e35	0.016776184
205	0x3c56ed4f	0.013118102
206	0xbbeda028	-0.007251758
207	0x3c30bc59	0.010787093
208	0xbc9e06d2	-0.019290362
209	0xbbc2328f	-0.005926437
210	0xbce9929f	-0.028512297
211	0xbb9c25a4	-0.0047652293
212	0xbcf762f6	-0.030198555
213	0xbcee371a	-0.029079009
214	0xbb52239e	-0.0032064687
215	0xbbdddc81	-0.006770671
216	0xbc5f8b6a	-0.013644079
217	0x3d1f705b	0.03892551
218	0xbce63b95	-0.028104583
219	0x3cce675b	0.025195768
220	0xbc81474f	-0.015781073
221	0x3b6525c0	0.0034965128
222	0xbc24abb5	-0.010050704
223	0x3cc96377	0.024583561
224	0x3ce2f179	0.027703034
225	0xbcc03bd7	-0.023466034
226	0x3d139613	0.036031794
227	0x3c9d5159	0.019203829
228	0x3c8ad632	0.01694784
229	0x3931a295	0.00016940602
230	0xbcacfe98	-0.021117494
231	0xbcf1c662	-0.029513542
232	0x3ba0d39e	0.0049080392
233	0xbcb5456c	-0.02212783
234	0xbcd26437	-0.025682552
235	0xbb29895b	-0.0025869224
236	0xbbb889e2	-0.0056316713
237	0x3ce9b825	0.02853019
238	0x3c2b03dc	0.010437932
239	0x3cb51403	0.022104269
240	0xbc423d82	-0.011855485
241	0x3d155c84	0.036465183
242	0x3c461f19	0.012092375
243	0x3c75a1be	0.014992176
244	0xbcc0bb6f	-0.023526875
245	0x3d098831	0.033577148
246	0x3d3e07b6	0.046394072
247	0xbcd86e24	-0.026419707
248	0xb91406d1	-0.00014116919
249	0xbc8f2b71	-0.01747677
250	0xbb65782b	-0.0035014253
251	0x3c763e8e	0.015029563
252	0x3da923d6	0.08258788
253	0x3bbc2be4	0.005742537
254	0x3da7a4e6	0.08185749
255	0xbd5e5950	-0.054284394

conv3.bias f4 [3]
0	0x3aa28d51	0.0012401735
1	0x3c948737	0.018130882
2	0xbc8433d5	-0.016137997
