weights/weights_1em4.pth (torch_old, 317565 bytes, 6 tensors)

conv1.weight f4 [128, 3, 3, 3]
00000000: 6088 72bc d543 16be 351d 093e eb25 3dbe
00000010: 66a1 723d 8f59 f13d 186e fb3d f42d c7bd
00000020: b7fb 0bbe 3daa 163e 2bcb c03c 380e 883c
00000030: 5b32 143e c86e aa3d 2677 adbd f98c 8b3c
00000040: 3f17 cd3d 10ee e4bc 4308 573d 73ab b9bc
00000050: 62b2 f13d f26a ecbc 2f80 213e 061b 323e
00000060: f4fa e1bd dd2f 39bd 9e1c 38be 7eec 38be
00000070: 9a8d 75bd 71cb 2fbe 0b4e cdbc 9dc5 30be
00000080: 2236 26be 6533 03be 870e 8a3c 3733 10be
00000090: 2913 88bd 0809 0cbe f91e b93d 3f35 5c3e
000000a0: 84ac dbbd bb32 763d 3cc4 ea3d 2f54 03be
000000b0: f349 c43d 0c1f 133e b88b 543d 6c9d 083e
000000c0: ef0f 733d 57c8 32be 1b51 4a3e 2b28 aebd
000000d0: b2d3 183c 237e 38be 2a39 003c ac4c 87bd
000000e0: 35e1 c03c 7494 0cbe 9f16 3f3e 77eb 7a3c
000000f0: 02ab 1abd d5fc eabd 0bf0 153e e813 323e
00000100: 8f9a 093e c6ea 36be 58d6 253e 3cbd 713c
00000110: fc90 e23d 9d5f 763d 6792 1d3e c7f5 35bd
00000120: b5d9 cabd 43a3 22be 8d66 1fbe 4f09 333e
00000130: 7c12 ad3d 767a 88bd 09f3 8dbd cb82 91bc
00000140: b1f8 ed3d 05f3 8abc f031 0e3e 1da5 a4bd
00000150: 7013 cf3d f180 c93c 2755 2a3e 8fd7 8a3d
00000160: 9cc5 bebd a6c1 e4bd 21ad 203c d1c5 3c3c
00000170: c89a e3bd b0ed 173e a9f3 33bd da59 403e
00000180: 8f40 8e3d cdff ac3d 1967 e7bd a4ce 333b
00000190: 3296 07be 4726 b73c a191 243e 7363 3bbc
000001a0: 9b38 d0bd 0a9f eabd 6449 f53d 3012 dfbd
000001b0: 1bed 7bbd b636 de3d cc2d cbbc 7e14 4bbe
000001c0: cd71 05bc d79c 5cbd 6a78 23bc 3273 c13d
000001d0: f045 0c3e 81c9 193e 47d7 093d 5366 c3ba
000001e0: 221d 933d e315 26be c329 62bb b376 b13c
000001f0: c376 3c3e 99b6 41be 12d2 3cbe 5a78 063e
00000200: e47c 923c b541 36bd ba62 e7ba a5f1 c2bc
00000210: 8b78 8ebb 8952 ffbd 6c7d 6e3d 98fa 0d3e
00000220: 6699 1a3c 6246 683d 9f42 d4bc 7ac1 5a3e
00000230: 89c9 4e3b a962 063e 83e3 a8bd 161e eebc
00000240: 5e27 03be 9043 923c 0c94 143e 9c77 e43d
00000250: d64a 16bd 258e 24bd dd65 bebd fa47 f7bd
00000260: 463b 2abe 8dcc ad3d 49e8 3f3e 11e7 493e
00000270: a150 0b3e 31fb 08ba deed 163e 5fb5 19be
00000280: 3e4a 3bbe 2e2b 883d bfc7 3a3e 1822 2ebe
00000290: d3f7 aabd 2d9f 223d 29a9 c63d 7884 b3bc
000002a0: 9c19 03be da21 0ebe 10ff c03d 8072 a43d
000002b0: c44f 333e 55a4 98bc dff8 1c3d 6f30 b0bd
000002c0: 07c3 3fbd 363a 113e 791d 8dbc efd4 d4bd
000002d0: f958 61bd f67a e23d 453d fe3d b569 20bd
000002e0: fc7c 313e f7f4 9fbd 2caa 00be 7e06 5cbd
000002f0: 573a b6bd 9583 933d 2867 193e d3eb febd
00000300: 4d03 793e c18f c6bd 40ff d0bd 2183 db3d
00000310: 0dcd 12be 98bd f9bd 0509 2f3e ce91 683e
00000320: 243d 323e f654 de3d 952c 273d fb38 d1bd
00000330: 2284 d43d 1a9f 0abe d447 933d 013d 87bd
00000340: 7e0e b03d 0fab 42bd 6703 043e ff06 4e3e
00000350: 24da babd 4ad8 993d bd62 c2bd 2925 24be
00000360: 143f 16be 5ddd 10be ce01 d8bd 1da8 3b3e
00000370: 8f33 f6bd d7a0 25be 1282 5d3e f1e0 03bd
00000380: 5377 50bb 2582 6e3d 286a 2d3e 3b28 6bbe
00000390: 2300 2ebd 7d21 c53d 4ca4 123d c41f 143e
000003a0: c712 61bd eef6 123e 4402 b1bd 69be 4b3d
000003b0: 563f 43be d638 5dbc 0cf8 d83d 2669 9fbd
000003c0: 5e8f 283e bb69 033a c2be 8dbd 9911 45be
000003d0: 1085 9dbd d627 ca3c 0045 343e 5580 093e
000003e0: e5e7 f6bd b42b 1ebe ab56 343e 28bf 08be
000003f0: 486f ae3d aba5 b03d 92b6 193e 35d1 073e
-0.014803022 -0.14674313 0.13390048 -0.18471496 0.059235953 0.1178466 0.12276858 -0.09725562
-0.1367024 0.14713378 0.023534378 0.016608343 0.14472334 0.08321911 -0.084699914 0.017034994
0.100141995 -0.027945548 0.052498113 -0.022664761 0.11801602 -0.02885959 0.15771554 0.17393121
-0.11034194 -0.04521166 -0.17979667 -0.18058965 -0.059949495 -0.1716745 -0.025061628 -0.17262883
-0.16231588 -0.12812574 0.01685263 -0.14082037 -0.066442795 -0.1367532 0.09039111 0.21504687
-0.10726264 0.060106974 0.1146321 -0.12825082 0.09584417 0.14367312 0.05189106 0.13341302
0.059341367 -0.17459236 0.19757502 -0.08503755 0.009327816 -0.18016867 0.007826129 -0.06606421
0.023544887 -0.13728505 0.18660973 0.015314928 -0.037760742 -0.11474005 0.1464235 0.17390406
0.13437866 -0.17862996 0.16195047 0.01475459 0.1106281 0.060149778 0.1538788 -0.044423845
-0.099048056 -0.15882592 -0.15566464 0.1748402 0.08450791 -0.066639826 -0.06931121 -0.017762562
0.116197 -0.016961584 0.13886237 -0.08039305 0.10111129 0.024597617 0.16634046 0.06779396
-0.09315035 -0.11169748 0.009806902 0.0115217725 -0.111135066 0.14836764 -0.043933544 0.18784276
0.06945907 0.084472276 -0.11298961 0.00274364 -0.13240889 0.02235712 0.16071178 -0.011437285
-0.10167047 -0.114561155 0.11976889 -0.10892141 -0.06150542 0.10850279 -0.024802111 -0.19832036
-0.008144808 -0.05386051 -0.009977439 0.094458 0.13698554 0.15018274 0.03365257 -0.0014907814
0.07183291 -0.16219287 -0.0034509755 0.021663046 0.18404679 -0.18917312 -0.1843951 0.13131848
0.017881818 -0.044496257 -0.0017653324 -0.023796866 -0.004347866 -0.12466914 0.05822508 0.13865125
0.009435987 0.056707747 -0.025910674 0.21362868 0.003155323 0.13123573 -0.082465194 -0.02906708
-0.12807986 0.017854482 0.145096 0.11155626 -0.036692463 -0.040174622 -0.09296773 -0.12074275
-0.16624174 0.084862806 0.18740954 0.19717051 0.13604976 -0.0005225419 0.14739177 -0.15010594
-0.1829004 0.06648861 0.1824026 -0.17005193 -0.0834805 0.039702583 0.097002335 -0.021913752
-0.12802738 -0.13880101 0.09423649 0.08029652 0.17510897 -0.018633047 0.03832328 -0.08602988
-0.046816852 0.14182362 -0.017225968 -0.10392176 -0.05501649 0.11058609 0.1241403 -0.03916331
0.17332834 -0.07810395 -0.12564915 -0.05371713 -0.08897846 0.07202832 0.14980757 -0.12447324
0.24317665 -0.09695388 -0.10204935 0.1071837 -0.14336033 -0.12194365 0.17093284 0.2271187
0.17406136 0.10856049 0.040814 -0.10215946 0.10376765 -0.13537255 0.071914345 -0.066034324
0.08596514 -0.047526415 0.12891923 0.20119856 -0.09123638 0.07511957 -0.09491489 -0.160298
-0.146725 -0.14146943 -0.10547219 0.18325849 -0.12021553 -0.16174637 0.21631649 -0.032196943
-0.0031809404 0.058229584 0.16935027 -0.22964565 -0.0424806 0.09625528 0.035801217 0.14465243
-0.054949548 0.14352009 -0.0864301 0.049742136 -0.1906713 -0.01350232 0.10594186 -0.07783727
0.1646094 0.00050130085 -0.0692115 -0.19244994 -0.07691395 0.024677198 0.17604446 0.13427861
-0.12055949 -0.15446359 0.17611186 -0.1335417 0.08517319 0.08625349 0.15011051 0.132634

conv1.bias f4 [128]
00000000: 3c2e 16be 6b3d 6c3d c274 8ebd 842a ad3b
00000010: f5ad a83d b056 473b f8ad 203e d9ba da3c
00000020: 6b04 07bc f4bf 533d bd50 4f3d 8ab3 09bd
00000030: 2fb6 fc3d 4a5a af3d 2923 27bd b620 833d
00000040: 05a7 47be 4732 d13c e13e 17be 8183 203d
00000050: 6ec2 2a3e d1b7 643d 1976 8f3b 1f43 42bb
00000060: c196 d7bd 4d04 2a3d 062b 723d 575e 113e
00000070: c53d 153e 046b bf3d 969b f23c 2ce1 ae3d
00000080: 60a5 c43d 9aa1 ab3d 2ad1 b7bd 9642 7d3b
00000090: cc7b 913c 3c96 283e d5ba 2cbe 16f7 713d
000000a0: 78e3 363e 8207 093e 9631 c8bd 1551 0f3d
000000b0: 086b b4bb d986 4b3a 4013 f3bc 0314 7f3d
000000c0: 483b 16be e393 123e 5e16 963d 833a 40be
000000d0: e517 f73b 9ad4 2a3e 05fa 2fbd 2ad5 21bd
000000e0: 09c6 fdbd 159e 89bd f1ba 673d 0957 2e3e
000000f0: 879a 1d3e 948c a5bd da98 9ebd 97b9 883d
00000100: 5c7e fcbc 5d42 82bd a6ff 553d 8c0b a03d
00000110: e17f cdbd bbf4 103d a077 ae3d ef50 cd3d
00000120: dd74 2b3e 19e1 943d 51d0 8b3d 64d4 2cbd
00000130: 1aa7 743d c997 1fbe f0e9 53bd 643f 973d
00000140: e16c 30be 0b23 283e 318b 10bd ee57 313d
00000150: 6cf9 30be 626e 1f3d cf23 bbbd 9014 2bbc
00000160: 4949 c9bc b79f 283e 5042 4c3d 8696 233d
00000170: 59eb b93d aac0 163e d9ce 313e a057 71bd
00000180: 28b1 c63d 2f89 2fbc 7314 1e3e 22bd 16be
00000190: 7042 9d3d 5a33 c5bd 3c79 e73c 265e b03d
000001a0: 0480 bf3d 1259 1abc 2ab3 4f3d 2259 503d
000001b0: d915 153e 4fbe 41be 6240 00bd 3aa8 e9bd
000001c0: d321 31bd 5bf6 d9bd bee9 c03d bed3 0abe
000001d0: 3ec7 8a3d 20e3 a2bd 455e ef3d 7752 16be
000001e0: 8b87 88bd 6f3f d6bd 138d 223e 4f3c 163e
000001f0: ccfe b73d 475c 9d3d ecf3 46be 08fa b13d
-0.14666075 0.05767576 -0.069558635 0.0052846093 0.08236305 0.003041666 0.15691364 0.026700424
-0.008240799 0.051696733 0.050614107 -0.033618487 0.12339436 0.08562143 -0.040805016 0.064027235
-0.19497307 0.02553667 -0.1477008 0.039187912 0.16675732 0.055839363 0.004378092 -0.0029642058
-0.10526801 0.041508008 0.05912306 0.14196144 0.14574344 0.093465835 0.029615205 0.08539042
0.09601855 0.083804324 -0.08975442 0.0038644425 0.017759226 0.1646356 -0.16868146 0.05907353
0.1786021 0.1338177 -0.09775083 0.034989435 -0.005505923 0.00077639293 -0.029672265 0.062274944
-0.14671052 0.14314227 0.07328485 -0.1877232 0.0075406902 0.16682664 -0.042963047 -0.03950993
-0.12391288 -0.06719605 0.056574766 0.17025389 0.15390979 -0.08083454 -0.07743998 0.066760235
-0.030821972 -0.06360314 0.05224576 0.078147024 -0.100341566 0.035389643 0.085189104 0.100252025
0.16743799 0.072694965 0.068268426 -0.04219474 0.059729673 -0.15585245 -0.051736772 0.07385138
-0.17229034 0.16419618 -0.035288993 0.043296747 -0.17282647 0.03892363 -0.09137689 -0.010441914
-0.024571078 0.16467176 0.049867928 0.039938472 0.09078092 0.14721933 0.17364062 -0.058921456
0.097017586 -0.010713859 0.15437488 -0.14720586 0.076786876 -0.09628935 0.028256051 0.086117074
0.09350589 -0.00942065 0.050707974 0.050866254 0.14559115 -0.18920253 -0.0313114 -0.1140904
-0.043245148 -0.10642692 0.09419583 -0.13557336 0.06776284 -0.07953477 0.11687902 -0.14679895
-0.06666478 -0.10461318 0.15874128 0.14671443 0.089841455 0.07683616 -0.19428986 0.08690268

conv2.weight f4 [64, 128, 3, 3]
00000000: 8245 a03c 8153 6fbc 01bd 98bc c2f2 f0bc
00000010: d936 a93c 47fc 833a db50 4a3c ca0b 01bd
00000020: c851 f7bc e8df 26bc 0d04 a13c c706 c03c
00000030: 9a3b 0c3c 9bf1 ca3c 8d4a 26bc e91d 88bc
00000040: 7046 be3c 7680 9ebc 797b 403c d21a a33b
00000050: db19 803b 160e 08bd 700a 343c 77b5 533c
00000060: 52e1 68bc e2a0 6e3c 39b0 093c fb5a e3bb
00000070: a695 d1bc b157 84bc 40db d33a 9806 32bc
00000080: bcb5 adbc f89e 543c 9422 883b 9b7b 973b
00000090: b5a2 0dbd fbf3 f7bc 76c6 2abc 9de9 02bd
000000a0: f306 02bd cdf4 d3bc 1269 33bc f081 d4bc
000000b0: 1fe2 8fbc 4703 b0bb 6839 d9bc b2d6 59bc
000000c0: 6700 85bc 9d65 023b ce22 1e3b 248d 6dbc
000000d0: fa67 82bc 9faf 92bc 8551 01bd cbdf f0bc
000000e0: 671d 803c 476e 9a3c ff8e 62bb 8321 0fbc
000000f0: 1808 ddbc d0d9 15bc 860d 7a3c b514 553b
00000100: f607 06bd eff7 eebb 9d2b ac3c c39b 7ebc
00000110: fa57 edbc c879 05bd 4e07 a7bc b77d 51b9
00000120: b681 5cbb bdb4 e03a 6570 d6bc 44ef 95ba
00000130: aa49 b6bc 812e cc39 e8ba 0a3b 5cd8 86bc
00000140: 166d 74bb 344c e4bc 143a 8a3c 489b 9fbc
00000150: 4fc7 003b 619d 13bc 34dd bbbc 02b6 e5bc
00000160: 17aa dcbc 0049 2dbc 53e9 91bc 4d42 7a3c
00000170: a80d aebc dd4b b6bc 4d85 f6bc 7cc2 8f3c
00000180: ad5d 473c dc81 a3bc f964 4f3c 4495 4d3c
00000190: 6688 f23b 0de3 afbc f2a9 973c 2d15 0b3b
000001a0: dd37 03bd 4017 d8bc 839a 8a3c 87c9 85bc
000001b0: 3dbc 8f3c e188 4b3c fc75 993c 6257 a7bc
000001c0: cf30 7dba afe4 733c d87d 4fbb c680 c1bb
000001d0: cc25 98bc 0cc6 6a3c ee0d 08bd 9caf debc
000001e0: 5092 953c 99ef 05bd 6124 a1bc dab9 05bd
000001f0: ecce 953c 9568 b5bc 5675 d8bc 4ec4 a9bc
00000200: 8c87 d2bc 0b14 0abd c376 cf3b 6d3f b1bc
00000210: 77c8 ac3b d53e 1c3b 0345 ddbb 67d4 b2bc
00000220: e811 a83c fe4d 47bc 9029 603c 00ae 39bc
00000230: 1eb7 d7bc 1052 56bc 979b b63c 0189 1bbc
00000240: 013c 2d3b 73b1 373c b90a f5bc 816f 32bc
00000250: 6bfb 00bc 994c 5c3c b5a7 44bc 7bc3 783c
00000260: 2733 f9bc 45c4 5aba 53e2 a1bc 853c b8bc
00000270: 6234 e4bb 84c8 fcbc e9ad 5d3c b00c b73c
00000280: 3db5 8abc 88af 61bc 5caa c83b 04c9 da3b
00000290: 5c80 983b a28b 38bc de7a 0fbb 2986 88bc
000002a0: 8aa8 48bc 13ad 293a 725a a6bc 956f e1bc
000002b0: d229 d8bb 3415 20bc 2fd9 423c 26b0 623c
000002c0: 9a5d 93bc 1f2e fbbc a94e 9c3c 2584 403c
000002d0: 90e3 d73b 6be1 d639 2df5 d93b 33bf c9bc
000002e0: a0e6 c4bc a4ee 10bd 33d3 8cbc 03bc 1e3c
000002f0: 08a7 b83a 9cab 2b3c 01d7 a73c 7e0b 803b
00000300: 97cf 9d3b 7663 07bc e06f 09bd 18c6 b0bc
00000310: 3fc0 d0bc dfa0 813c 020a bd3b 0f56 b9bb
00000320: 1e6b dc3c f3b3 883c b02e d7bb d459 c1bb
00000330: 78c3 9d3c d378 97bc bf24 6f3c ee32 fa3b
00000340: 7ce5 a63c 9e73 b5bc e817 bcbc 316d e8bb
00000350: a532 bebc 00d8 bbbc 4ca5 1bbc c341 f0bb
00000360: b0d0 b6bc c070 5b3a 3947 933c f50f c33c
00000370: 090d 873c ba3e d7bc 5ca3 823b cfe5 b73c
00000380: f583 b13c 051b 66bc fdc9 063c 60af 2aba
00000390: c450 a83b dd47 8d3c 86c8 dbbc 6cd1 57bc
000003a0: 835e e33c fef4 cabc 54b3 a53c 0821 47bc
000003b0: 3a9f 03bd 8106 95bb a808 7fbc fbf0 04bd
000003c0: ae21 57bc 7b15 3bba 2579 b23a 680a d1bc
000003d0: 7e62 863b a761 01bd 962d 0bbc deae 04bc
000003e0: 5766 c5bb cebc 393a de95 e1bc f0ac 54bc
000003f0: f895 bfbb a924 da3b a3ca 40bc f314 44bc
0.019564394 -0.014607311 -0.018644812 -0.029412631 0.020656036 0.0010069691 0.012348379 -0.031505384
-0.030190364 -0.010185219 0.019655252 0.023440732 0.008559132 0.02477341 -0.01014961 -0.016615825
0.023226947 -0.019348364 0.011748188 0.0049775625 0.003909332 -0.03321656 0.010988817 0.012921683
-0.014213877 0.014564725 0.008403831 -0.006938336 -0.025584053 -0.016155096 0.0016163364 -0.01086583
-0.021204822 0.012977354 0.0041545127 0.004622889 -0.034578998 -0.030267706 -0.010423293 -0.031961072
-0.03174491 -0.025873566 -0.010950344 -0.025940865 -0.017563878 -0.0053714844 -0.026516631 -0.013295816
-0.016235543 0.0019896992 0.0024129632 -0.014498983 -0.01591872 -0.017906008 -0.031571884 -0.029403588
0.01563902 0.018851412 -0.0034570096 -0.008736017 -0.026981398 -0.009146169 0.015262013 0.0032513563
-0.032722436 -0.0072927396 0.02101689 -0.015540066 -0.028972615 -0.032586843 -0.020389225 -0.00019978626
-0.003364665 0.0017143708 -0.02617664 -0.0011439105 -0.022251923 0.0003894456 0.0021168534 -0.01646059
-0.0037296466 -0.027868368 0.016873397 -0.019483224 0.0019650047 -0.00900969 -0.022932626 -0.02804089
-0.026936574 -0.010576487 -0.017811453 0.015274596 -0.021246746 -0.022252971 -0.03009286 0.017548792
0.01216833 -0.019959383 0.012658351 0.012547795 0.007401514 -0.021470571 0.018513653 0.0021222339
-0.032035697 -0.026378274 0.01691938 -0.016331447 0.017545814 0.012422771 0.018733017 -0.02042741
-0.0009658457 0.014886065 -0.0031660702 -0.0059052436 -0.01857271 0.014329445 -0.03321641 -0.027183346
0.018258244 -0.0326992 -0.019670667 -0.032647945 0.018287145 -0.022144595 -0.026423138 -0.020723488
-0.0256994 -0.03371052 0.006331296 -0.02163669 0.0052729207 0.0023841162 -0.0067526116 -0.021829797
0.02051635 -0.012164591 0.013681784 -0.011332989 -0.026332434 -0.013081089 0.022290988 -0.0094931135
0.002643347 0.011211741 -0.02991234 -0.010890842 -0.007872443 0.013445997 -0.012002875 0.015183325
-0.0304199 -0.00083452865 -0.01976124 -0.022489795 -0.0069642523 -0.030857332 0.013530233 0.022344917
-0.016932124 -0.01377476 0.006123824 0.006676795 0.0046539735 -0.01126376 -0.0021893303 -0.016665535
-0.012247214 0.00064726284 -0.0203068 -0.027519027 -0.0065967822 -0.00977068 0.011892601 0.013835942
-0.017988969 -0.03066164 0.019080477 0.011750256 0.006588407 0.0004098521 0.0066515417 -0.024627304
-0.024035752 -0.035383835 -0.017190551 0.00968838 0.0014087865 0.010477927 0.020488264 0.00390762
0.0048160064 -0.008263459 -0.033553958 -0.021578833 -0.025482295 0.01582378 0.0057690153 -0.005656011
0.026906546 0.016687369 -0.006566845 -0.005900601 0.019258246 -0.01849023 0.014596163 0.007635466
0.020373099 -0.022149857 -0.022960618 -0.0070930948 -0.023217509 -0.022930145 -0.009499859 -0.007332058
-0.022316307 0.0008370988 0.017978298 0.02381132 0.016485708 -0.026275028 0.003986759 0.022448448
0.021669367 -0.014044528 0.008226869 -0.0006511118 0.005136581 0.017246181 -0.026829015 -0.013172489
0.027755028 -0.024775025 0.020227112 -0.012153871 -0.032134272 -0.0045478945 -0.015566029 -0.03245638
-0.013130588 -0.0007136685 0.0013616426 -0.025517657 0.0041010967 -0.03158727 -0.008494755 -0.008098332
-0.0060241628 0.0007085324 -0.027537283 -0.012980685 -0.005846735 0.0066572023 -0.011767062 -0.011967885

conv2.bias f4 [64]
00000000: 72ab bdbc 54dc 60bc 27be 863c b1d0 f93b
00000010: 7e16 913c 86fb eb3b e4eb 4bbc 98f4 00bc
00000020: 78b7 d43a 7b20 703c 5288 c2bc c04b e7bb
00000030: 8256 b7bc 4fd1 1e3c 3c05 cebc dd41 9ebc
00000040: cda3 e63c d69f 5a3c 3fb9 33bc 6b12 79bc
00000050: a2d0 bebc 282e eebc de7a acbc 12a9 c7bb
00000060: dc9d 35bb c8d6 adbc 319f 88bc 2c63 4d3c
00000070: 4e4b 7bba 162d 473c 5c83 883c 845d b4bb
00000080: 6af9 05bc 48eb 523b 9d2c ba3b 37a1 393c
00000090: 2a3c 9cbb 8ddf 1e3c 7675 ad3c 72ff a7bc
000000a0: bf94 aabc 9f20 ea3c 2ce4 5d3b d4cf 573c
000000b0: 4afe 673c 0d8b f4ba 2b93 bd3c 570a e3bc
000000c0: fc01 b53c c4cd a9bc 3fec 683c 2ad2 9dba
000000d0: 2f82 483c f4ac 82bc 64ad b1bc 1813 24bc
000000e0: 1302 bc3b 6f5b 00bd 56fa 693c cb50 c2bc
000000f0: edad d0bb e5e8 d73b 2c73 a3bc 4899 3f3b
-0.02315304 -0.013724405 0.016448094 0.007623755 0.01771092 0.007201615 -0.012446377 -0.007870816
0.0016228994 0.014656181 -0.023746643 -0.0070585907 -0.022380117 0.009693458 -0.02514898 -0.019318515
0.028154278 0.013343772 -0.010969459 -0.015202145 -0.023292843 -0.029074743 -0.021054681 -0.006093153
-0.00277125 -0.02122058 -0.01667747 0.012535851 -0.00095861114 0.012156745 0.0166642 -0.005504312
-0.008177141 0.0032183696 0.005681588 0.0113299405 -0.0047679143 0.009696853 0.021174174 -0.020507548
-0.02082288 0.028580008 0.0033857925 0.013172109 0.014159748 -0.0018657163 0.023141464 -0.027714891
0.022095673 -0.020728 0.014216482 -0.0012040783 0.012238069 -0.015951611 -0.021689124 -0.010014318
0.005737552 -0.031337198 0.014280876 -0.023720166 -0.00636839 0.0065890425 -0.01995238 0.002923565

conv3.weight f4 [3, 64, 3, 3]
00000000: 8e6b 0c3d e013 9bbb 3d94 993c fad7 e6bc
00000010: 9daf d2bc d49e fe3a 0670 11bd 7bcf d7bc
00000020: 5eae 44bb 81ee 2b3c dda0 ecbc 4298 bbbc
00000030: d4ea f73a 51a3 a1bc 3b50 b83b cc73 5d39
00000040: 4553 2f3d 285a 693b 0905 c83c e477 083c
00000050: 37a5 0e3c 51db 48bc 4a9b a8bc 887f a93c
00000060: 628a 6b3a 1eb1 86bc f5d9 ef3a fcc6 90bb
00000070: 9590 c2bc 8996 773c 8e41 06bd 66bc f23c
00000080: 3791 9dbc acd8 b73c 8cc7 65bb f191 ebba
00000090: 0876 efbc 2c48 e03c 9262 883c ff49 1f3c
000000a0: 8ae7 6d3c 8acf 683c 7d10 d13c 458b 65bc
000000b0: 68e4 c83c 0e69 8ebc 46ba e0bb 4fb2 a7bc
000000c0: d38e d53c a313 a4bc a085 a9bc d2ab 813c
000000d0: a4fd 0d3c de97 073d f484 b1ba 361e a43c
000000e0: 65a4 27bd df3b fd3c 7f96 9fbc 1173 523c
000000f0: 3da6 173d aac9 94bc c245 033d ba9a 6e39
00000100: cbfd f33c 3c74 ebbc 978a e03c 4e52 dcbc
00000110: ab0a 81bc 164a 9fbc 608f b93c 5571 4d3c
00000120: c79a 7c3b 06ed 2e3c 7b5c eebc dfca 33bd
00000130: fbad 023c 4c87 d43c 78ef 333d e25e 74bc
00000140: 9d5e c7bc 215b 4d3c c19a c3bb b70e 43bc
00000150: e4d0 273c d9bf 443c 69e7 08bd 25f9 7dbc
00000160: 38a8 32bb 1909 0abd 22fc 8c3c 3713 ea3c
00000170: 8699 8c3c b07f 063d 2a00 323d 88ec 88bc
00000180: 20a1 1f3d b054 643c 0602 193d c548 c6bc
00000190: aed9 fb3c a60e e23c 658e d9bc 2745 52bc
000001a0: b1a4 643b dadd a8bc 971c f8bc 5727 e73a
000001b0: 9ac7 683c d601 b33b 0920 8abb 0fa2 b5bc
000001c0: 8836 fbbc 130b 87bc 4b83 9cbc 2a5e f03c
000001d0: 9dfa e63b f21d 903b 6e48 213d fac2 cd3c
000001e0: e86f aa3c 4bca 353b 5e47 c7bc 93ad 11bd
000001f0: 5aa5 0bbd e43d ce3c 12dc f93c 634c 3a3c
00000200: 86fb 3a3c e607 6cbb 8d7f f9bc a7d8 75bc
00000210: ad3a 7bbc 61f6 14bc 954e acbc dcca 0ebd
00000220: ca5f 0ebd 1631 40bd 4aad 03bd 4d5b 193d
00000230: e253 1dbd 6a3c fe3c 4ac3 393d 9740 a9bc
00000240: e457 223d 3e54 5b3c 0faa 0d3c 32fc 76bc
00000250: a056 2fbc df7d bebb e6f1 5d3c c50d 753c
00000260: 8a2e fd3a 3f79 07bc 6d68 2d3b 0fbf b9bc
00000270: d15f 473c 55ec 3ebd b602 0dbd 3f2b c03c
00000280: 1fc6 49bc c6b3 edbc d69a 613c 27c1 a3bc
00000290: 7dfb 18bc 7a8a c43b 16f6 2f3c fbab 493c
000002a0: edf7 07bc 8f1b b43c cfb5 d3bb b727 13bd
000002b0: fe41 42bc d893 86bb 2457 b0bb 54c3 a13c
000002c0: b090 00bc 48dd 2ebd 5113 a63c df5d 093d
000002d0: 7db6 923c cb07 303d 349f 023d d017 7c3c
000002e0: 8a20 eebc 0568 773c 11e8 2aba 8062 85bc
000002f0: 8d9e b13c 356d 0a3d bda5 f9bb 5beb dcbc
00000300: 5431 173c f1cd 34bc 7822 26bb 58d7 d9bc
00000310: e59e 3b3d 3566 edbc 7394 c73c 736c 2c3c
00000320: de27 eebb eaa1 13bc 6d17 6b3c 3242 ffbc
00000330: 0323 63bb 3449 b4bb 4618 0d3d f52c 463c
00000340: 40c6 07bc e1ca d4bc 685e 403d 8782 483d
00000350: 921a 343d 0b35 9bbc d04d 12bd e3b9 1dbd
00000360: 5b5c 3bbc ce52 32bd 66cd b33c a149 0c3d
00000370: 619e ab3c 6ac2 bd3b 8b2a 71bc 06e4 fd3c
00000380: 9fd0 853c f033 e0bc 7072 8bba 8a23 b2bb
00000390: 2d6f 323b 7a7b e3bb fd71 76bc 6b41 00bd
000003a0: a45d 3c3d 6524 113d 6ec9 063d c885 1ebd
000003b0: 87cd 123d 1585 193d cfb5 19bd ae78 21bd
000003c0: cf33 1d3d 1009 96bc a809 2b3c 1ec1 123d
000003d0: f1fb 40bc 2473 f239 fb5c 3b3d ca6a 46bc
000003e0: dc1d 173d 6abe ecbc f931 b5bc 4402 043d
000003f0: 693d b13c 5aef c73b 3598 f93c ca58 073b
0.03428226 -0.004732594 0.018747443 -0.028179158 -0.025718505 0.0019425997 -0.035507225 -0.026344052
-0.0030011158 0.0104938755 -0.0288853 -0.02289975 0.0018914589 -0.019731196 0.0056247986 0.0002111934
0.04280402 0.0035606716 0.024416463 0.008329365 0.0087063825 -0.01225932 -0.02058186 0.020690694
0.0008985159 -0.016441878 0.0018299209 -0.004418252 -0.023750583 0.015111574 -0.03277736 0.029630851
-0.019234283 0.022442184 -0.0035061566 -0.0017972571 -0.029231086 0.027378164 0.016648564 0.009722232
0.014520535 0.014209637 0.025520558 -0.014010255 0.024522975 -0.017384078 -0.006858143 -0.020470766
0.02606908 -0.020028895 -0.0206936 0.015829 0.00866643 0.033103816 -0.0013543651 0.020033937
-0.040928263 0.030912338 -0.019480942 0.012844817 0.03702377 -0.018162567 0.032048948 0.00022755089
0.029784104 -0.028741948 0.027409835 -0.026894715 -0.015752157 -0.019444507 0.022651374 0.0125392275
0.0038544403 0.010676628 -0.029096832 -0.043894645 0.0079760505 0.02594342 0.043929547 -0.0149152
-0.024337107 0.012533934 -0.005969376 -0.011905364 0.0102426745 0.012008631 -0.033423815 -0.015501295
-0.002726091 -0.033700082 0.01721007 0.028573615 0.01716305 0.032836616 0.043457188 -0.01671435
0.03897202 0.013936207 0.037355445 -0.024204621 0.030743446 0.027594876 -0.026557157 -0.01283387
0.0034888203 -0.0206136 -0.03028707 0.0017635626 0.014207745 0.0054628653 -0.0042152447 -0.022172002
-0.030665651 -0.016484773 -0.019105574 0.029341776 0.0070489184 0.004398101 0.039375715 0.025117386
0.020805314 0.0027738984 -0.024326023 -0.035565924 -0.03409324 0.025175996 0.030500446 0.011370751
0.011412507 -0.003601545 -0.030456329 -0.015005267 -0.015333814 -0.009091944 -0.021033565 -0.03486143
-0.03475932 -0.046921812 -0.032147683 0.037440587 -0.038410075 0.031034667 0.045352258 -0.020660682
0.0396346 0.013386784 0.008646502 -0.0150747765 -0.010701805 -0.005813345 0.013546443 0.014956896
0.0019316238 -0.008268653 0.0026459948 -0.022674112 0.0121688405 -0.046612103 -0.034426413 0.023458121
-0.012315302 -0.029016387 0.013769826 -0.019989563 -0.009337303 0.005997953 0.010739824 0.01230907
-0.008298856 0.021985797 -0.0064608823 -0.035926547 -0.011856554 -0.00410698 -0.0053814817 0.01974646
-0.007846996 -0.0426915 0.020272883 0.033536788 0.017909283 0.042976182 0.03189011 0.015386537
-0.02906825 0.015100484 -0.0006519566 -0.01628232 0.021682048 0.033795554 -0.0076186345 -0.026967695
0.009228069 -0.011035428 -0.0025350135 -0.026591942 0.04580583 -0.0289794 0.024362778 0.010523903
-0.007267936 -0.009010771 0.014348847 -0.031159494 -0.003465832 -0.0055018906 0.034446977 0.0120956795
-0.008287013 -0.025975646 0.046965033 0.048952606 0.043970652 -0.018946191 -0.03571874 -0.038507354
-0.0114355935 -0.043536 0.021948528 0.034249905 0.020949544 0.005790998 -0.014719616 0.03099252
0.01633483 -0.027368516 -0.0010638963 -0.0054363655 0.002722691 -0.00694221 -0.015041825 -0.031312387
0.04598774 0.0354351 0.032906942 -0.038701802 0.035840537 0.037480433 -0.0375269 -0.03942173
0.038379487 -0.018314868 0.010439314 0.035828702 -0.0117788175 0.00046243623 0.04574297 -0.012110421
0.03689371 -0.02889939 -0.022118555 0.032228723 0.021635728 0.006101531 0.030468086 0.0020652288

conv3.bias f4 [3]
00000000: 2d32 bb3c 35d5 b73c b29f b43b
0.022851074 0.022440532 0.005512201
